ckpt/eedi/irt_MFI_ip30.pt (torch, 286913 bytes, 12 tensors)

utn.0.weight f4 [256, 1]
0	0x3e1feb9e	0.15617225
1	0x3e8faf5a	0.2806347
2	0x400214c5	2.0325177
3	0x3fe6a367	1.8018616
4	0xbf97b6b6	-1.1852634
5	0xbfffdfae	-1.9990137
6	0xbf10f82c	-0.5662868
7	0xbfcf1678	-1.6178732
8	0xbe966905	-0.29377
9	0xbf859399	-1.0435668
10	0x3ecf8c1b	0.4053658
11	0x3edf5cba	0.43625432
12	0xbee87833	-0.45404205
13	0x3f5be7a2	0.8590032
14	0xbfcf2d7e	-1.6185758
15	0xbf9d7e97	-1.2304257
16	0xbfca56fc	-1.5807796
17	0xbe8e9b78	-0.27852988
18	0xbf90f680	-1.1325226
19	0xbfe8f4fe	-1.8199766
20	0xbff27a49	-1.8943568
21	0x3fa08597	1.2540768
22	0xbfa524ee	-1.2901895
23	0xbdaa6249	-0.08319528
24	0xc077b069	-3.8701422
25	0x3ede90ee	0.43469948
26	0xbfa8ee69	-1.3197757
27	0xc00f2e4c	-2.2372007
28	0x3fa9da8d	1.3269821
29	0xbf3ce03b	-0.7377965
30	0x3f8798eb	1.0593542
31	0x3db7c6ee	0.0897349
32	0x3f0acf3c	0.54222465
33	0xbda24df7	-0.07925027
34	0x3e2d65f9	0.1693343
35	0xc009b941	-2.151932
36	0xbff7315e	-1.9311941
37	0xc005fdfa	-2.0936265
38	0x4023adf6	2.5574927
39	0xbfc6185f	-1.5476187
40	0xbf8cbfc0	-1.0996017
41	0xbfc18ab0	-1.5120449
42	0xbfb2e8e4	-1.3977323
43	0x3ed68718	0.41899943
44	0x3fbfca10	1.498354
45	0xbe978e5a	-0.29600793
46	0xbf9b73ae	-1.2144678
47	0x3fab2f0b	1.3373731
48	0xbf88a29d	-1.0674626
49	0x40403724	3.0033655
50	0xbfb3808a	-1.4023602
51	0xbcec52b2	-0.028848026
52	0xbf00e118	-0.50343466
53	0xbfa6096c	-1.2971625
54	0xc01c3e13	-2.4412887
55	0xc00c7fec	-2.1953077
56	0xbd1c2524	-0.038121358
57	0x3ec318f3	0.38104972
58	0xbf02cccc	-0.51093745
59	0xc00bf88c	-2.187045
60	0xbfc5a3e2	-1.5440638
61	0xbfe4fad4	-1.7889047
62	0xc00d0b7f	-2.2038267
63	0xbeace057	-0.33764908
64	0x3e090905	0.13382347
65	0x3e5ba4e4	0.2144962
66	0x3c9a05b9	0.018801557
67	0xbdc3a658	-0.09553212
68	0xbe8e6ef8	-0.27819037
69	0xc001fb1f	-2.0309522
70	0xc008c307	-2.1369035
71	0xbd87e68a	-0.06635769
72	0xbff7d020	-1.936039
73	0xbfee6ec0	-1.8627548
74	0xbfc66955	-1.5500895
75	0xbeaab7aa	-0.3334325
76	0xbe901655	-0.28142038
77	0xc00daeba	-2.2137895
78	0xbfbdb506	-1.4820869
79	0xc002cae5	-2.0436337
80	0x3edd0809	0.43170193
81	0xbf0da59a	-0.5533081
82	0x3e46259d	0.19350286
83	0xc0218435	-2.5236943
84	0xbfca4d5d	-1.5804859
85	0x3fd99a92	1.7000296
86	0x3edb8788	0.4287684
87	0xc01687fb	-2.3520496
88	0x3ed2ac17	0.4114692
89	0xc02e5d6d	-2.7244523
90	0x3faf43b0	1.3692532
91	0xbe4a64c5	-0.19765003
92	0xbf8232bd	-1.0171734
93	0xc02dda30	-2.716442
94	0xbf1b4333	-0.6064941
95	0x3fcefd65	1.617108
96	0x3e4dcb34	0.20097047
97	0xc01a8711	-2.4144938
98	0xbfd33d0e	-1.6503007
99	0xc09297f1	-4.5810475
100	0x3f3eba89	0.7450338
101	0xc0326e1a	-2.78797
102	0xc0424fde	-3.0361247
103	0xc041e3c4	-3.0295267
104	0x401e90b1	2.4775813
105	0xbedb7f6b	-0.4287065
106	0x40140ae1	2.313164
107	0xbfb51861	-1.4148065
108	0x3ffca05c	1.9736438
109	0xbe963c67	-0.29342958
110	0x3fa68680	1.3009796
111	0xbe8675a1	-0.2626162
112	0xbf9ad8b1	-1.2097379
113	0x40a5d97e	5.1827993
114	0xc02f377f	-2.7377622
115	0xbec49327	-0.38393518
116	0xbfbed37d	-1.4908291
117	0x3f9a548d	1.2057053
118	0x3e0d2bd9	0.13786258
119	0xbf912e7a	-1.1342309
120	0x3f5b765e	0.8572749
121	0xc019e4c1	-2.404587
122	0xb9da2d5a	-0.0004161399
123	0xc004de3f	-2.0760648
124	0xbe4f13dc	-0.2022242
125	0x3f07ec8e	0.5309533
126	0xbfdc8d26	-1.7230575
127	0xbece89b4	-0.40339434
128	0xbe248435	-0.16066058
129	0xc05d0870	-3.45364
130	0xbf3f1393	-0.7463924
131	0xc00ccf65	-2.2001584
132	0xbfa3647c	-1.276504
133	0x3d222aea	0.039591707
134	0x3f9a188c	1.2038741
135	0xbfcffbf4	-1.6248765
136	0xbfca0015	-1.5781275
137	0xc0930398	-4.5941887
138	0xbea4d9a9	-0.32197312
139	0xc003c797	-2.059057
140	0xbfd982e4	-1.699307
141	0xbff24463	-1.892712
142	0x3f0532e1	0.5203076
143	0x3e34f5a8	0.17671835
144	0xbe103af1	-0.14084984
145	0xbf31f99c	-0.695215
146	0xbf822e46	-1.0170372
147	0x40233f87	2.5507524
148	0x3f494dff	0.7863464
149	0x3d5210ec	0.05128567
150	0x3eaecde0	0.34141445
151	0x3f01e0db	0.5073373
152	0xbfe4148f	-1.7818774
153	0xc018045c	-2.375266
154	0x3eaedf7a	0.34154874
155	0xbfcb717d	-1.5894009
156	0x3fa012f1	1.250578
157	0xbf08a6ef	-0.5337972
158	0x3f0396c9	0.51401955
159	0xbf8bd5c0	-1.0924606
160	0xbfe557c4	-1.7917409
161	0x40232ae0	2.549492
162	0xbfb9f6b8	-1.4528418
163	0xc089b6ce	-4.303565
164	0xbfb15826	-1.3855026
165	0xc003d13f	-2.0596464
166	0xbeb7679b	-0.35821232
167	0x3edfedca	0.43736106
168	0x3df3e096	0.11908071
169	0xbfaa45ca	-1.3302548
170	0xc0051d5f	-2.0799177
171	0xc087d662	-4.24492
172	0xbef36dec	-0.475448
173	0xc009ded2	-2.1542249
174	0x3ffe1fcc	1.9853454
175	0x3d83ba8a	0.06432064
176	0x3e355cb3	0.17711143
177	0x3ed799b9	0.4210947
178	0x3fe99aee	1.8250406
179	0xbf8d0f80	-1.1020355
180	0xbfbed712	-1.4909384
181	0xbefdeac2	-0.49593168
182	0xbea83f15	-0.32860628
183	0x3f8b631a	1.0889618
184	0xc08196e4	-4.0496693
185	0x3e383e56	0.1799253
186	0xc027fc1b	-2.6247623
187	0xbfffc049	-1.9980556
188	0x4054a230	3.3223991
189	0xbfcfe7cf	-1.6242617
190	0xbfaf1fda	-1.3681595
191	0xbfed6652	-1.8546851
192	0xbfbbfbce	-1.468622
193	0x3fd30eac	1.6488853
194	0xc0126be4	-2.2878351
195	0xc009a44a	-2.1506524
196	0xbec1b265	-0.37831417
197	0xbe676bfc	-0.22599787
198	0xbe1ae4f9	-0.15126409
199	0xbe21bf21	-0.15795566
200	0xbf37a511	-0.71736246
201	0xbd5f6419	-0.05453882
202	0xbd091959	-0.03347144
203	0xbf9db1c8	-1.231988
204	0x3d2b9e4e	0.041899018
205	0xbfbb4422	-1.4630167
206	0xbfba8163	-1.4570736
207	0xbda05609	-0.0782891
208	0x3f1f713e	0.6228217
209	0x3ffb3716	1.9626186
210	0xc01f2306	-2.4865127
211	0xc0155622	-2.3333821
212	0xc046c5c1	-3.10582
213	0xbfe1e804	-1.764893
214	0xc001a184	-2.0254831
215	0xbf3a117e	-0.7268294
216	0xc066ecb0	-3.6081963
217	0x3e8ac031	0.27099755
218	0x3fb4451e	1.4083593
219	0xbeab6fcb	-0.3348373
220	0xbf806f59	-1.0033981
221	0xbfedb096	-1.8569515
222	0xbff33c35	-1.9002749
223	0xbf94c313	-1.1622032
224	0xbf9b618c	-1.2139144
225	0xbfae25aa	-1.3605244
226	0x3f5d225e	0.86380565
227	0xbe762374	-0.24036962
228	0xbfb04164	-1.3769956
229	0xbe9cb826	-0.30609244
230	0xbfaa24ed	-1.3292519
231	0xbe2f765c	-0.17134994
232	0xbffd5bbe	-1.9793622
233	0xc05ef09b	-3.4834354
234	0xbff51766	-1.9147766
235	0x3ee3d7f6	0.44500703
236	0xc00c35ac	-2.1907759
237	0xc0112fc6	-2.2685409
238	0xbc49c113	-0.012314099
239	0x3ed1fef8	0.41014838
240	0x3fd64409	1.6739513
241	0x40675cb1	3.6150324
242	0x3f46e657	0.7769522
243	0xbd1985c7	-0.037481096
244	0xc0b91a0c	-5.7844296
245	0x3eb3e670	0.35136747
246	0xbfda58ca	-1.7058346
247	0x3cdfe4ff	0.027330874
248	0xbe312cd4	-0.17302257
249	0xbff4f226	-1.9136398
250	0xc02aba5d	-2.6676247
251	0xbece68a0	-0.40314198
252	0xc03c2c18	-2.9401913
253	0x3feb5860	1.8386345
254	0x3fc9b885	1.5759436
255	0xbfdc3e8c	-1.7206588

utn.0.bias f4 [256]
0	0xbfa689c3	-1.3010792
1	0x3ef68b39	0.48153093
2	0xbd4f1124	-0.050553456
3	0xbe992082	-0.29907614
4	0xbf3da01d	-0.7407244
5	0x3ebbca5f	0.36677834
6	0xbb9cb296	-0.0047820313
7	0x3f3e5fea	0.74365103
8	0xbd9c0bdc	-0.076194495
9	0xbe6879b4	-0.22702676
10	0xbe9d7e88	-0.30760598
11	0x3e5a7dc1	0.21337034
12	0x3ee93e4e	0.45555347
13	0x3eeb2085	0.45923248
14	0xbf3181b9	-0.69338566
15	0xbea8caaf	-0.32967135
16	0xbf927a95	-1.1443659
17	0xbe8f3f26	-0.27977866
18	0xbf3bccb5	-0.73359233
19	0xbfa740d2	-1.3066657
20	0x3e99b40b	0.30020174
21	0xbeb46cb5	-0.35239187
22	0xbeccaaad	-0.39973965
23	0x3cf95abe	0.030438777
24	0xbe9d093e	-0.30671114
25	0xbf26ee8c	-0.65207744
26	0xbfa9a774	-1.3254228
27	0x3e3a83b2	0.182143
28	0x3e9f2295	0.31081071
29	0x3e029fc4	0.12756258
30	0xbde21692	-0.11039461
31	0x3d12c4a6	0.03583207
32	0xbe8d1cce	-0.2756104
33	0xbee5871d	-0.44829646
34	0xbf6e55fd	-0.9309996
35	0xbeb308ec	-0.34967744
36	0xbcebd9d4	-0.028790392
37	0xbf57a91a	-0.84242404
38	0x3c683a59	0.014174067
39	0xbf27cd04	-0.65547204
40	0x3f24c342	0.6436044
41	0xbf96c23c	-1.1778026
42	0xbd65f7ff	-0.05614471
43	0xbeca0057	-0.39453384
44	0xbe67d8e9	-0.22641338
45	0xbe88980e	-0.2667851
46	0xbf357720	-0.70884895
47	0x3efd5e3e	0.49485964
48	0x3e49aedb	0.19695608
49	0xbe2bf845	-0.16793926
50	0xbea477fd	-0.32122794
51	0xba4096c3	-0.0007346684
52	0x3d50c736	0.050971232
53	0x3d3c9d12	0.04604823
54	0xbf8a204f	-1.079111
55	0xbecf10e4	-0.40442574
56	0x3e2e6f2a	0.17034593
57	0xbee7a538	-0.4524324
58	0xbda27c4f	-0.07933866
59	0x3e0e5486	0.1389943
60	0xbf7fe8cc	-0.99964595
61	0xbdde4a68	-0.108540356
62	0x3eac2452	0.3362146
63	0xbe644b46	-0.2229434
64	0xbdeb1ba2	-0.1147988
65	0x3c7a3ce5	0.015273307
66	0xbf8343bc	-1.0255046
67	0xbe02c852	-0.12771729
68	0x3f131842	0.5745889
69	0x3e8cbf0f	0.27489516
70	0xbd59b54f	-0.053151425
71	0xbda5f303	-0.081029914
72	0x3d91865f	0.071057074
73	0xbf7bd9fe	-0.98379505
74	0xbf96d456	-1.178355
75	0xbf9dc0bc	-1.2324443
76	0x3ed56032	0.41674954
77	0xbd87c9ec	-0.066303104
78	0xbf996aa6	-1.1985672
79	0xbe0b93c2	-0.13630584
80	0x3f34ac7f	0.7057571
81	0x3ea85cfd	0.32883444
82	0x3f2e8114	0.6816571
83	0x3e7f6684	0.2494145
84	0xbe9bf0fa	-0.30457288
85	0xbca60104	-0.020264156
86	0x3f38f6fd	0.72251874
87	0x3ebe0d02	0.371193
88	0xbf141bab	-0.5785472
89	0xbc8f5b6c	-0.017499648
90	0x3effca8b	0.49959216
91	0x3e4b0cc2	0.19829085
92	0xbf115534	-0.56770635
93	0xbec9c521	-0.3940821
94	0xbf4cfd6f	-0.8007421
95	0x3f3da6f6	0.7408289
96	0xbef2ef13	-0.47448024
97	0xbef45b3e	-0.47725862
98	0xbd56a8a2	-0.052406915
99	0x3eb18e6c	0.34678972
100	0xbe8f0689	-0.27934673
101	0xbedde9f6	-0.4334256
102	0xbf4baeec	-0.79563785
103	0xbec050fa	-0.3756178
104	0xbf0bfe8b	-0.54685277
105	0xbfba9a05	-1.4578253
106	0xbe9a1432	-0.30093533
107	0x3f2c1e5c	0.67233825
108	0x3f12d99a	0.57363284
109	0x3f338a2d	0.70132715
110	0x3f3b27e8	0.7310777
111	0xbfadc740	-1.3576431
112	0xbf7e61c1	-0.9936791
113	0xbf395c61	-0.72406584
114	0xbf79918a	-0.974877
115	0x3e91c8c4	0.28473485
116	0xbf97b464	-1.1851926
117	0xbe5b25be	-0.21401116
118	0xbfa7b1ca	-1.3101132
119	0xbf64df15	-0.89402896
120	0x3f846929	1.0344592
121	0xbd4372ef	-0.04771703
122	0x3e875931	0.26435235
123	0x3eda7b9e	0.42672437
124	0x3f2098b4	0.62733006
125	0xbe8f3861	-0.279727
126	0x3eace616	0.33769292
127	0x3ef38587	0.4756281
128	0x3e1666f9	0.14687718
129	0xbdb32714	-0.08747688
130	0xbc95db3b	-0.018293014
131	0xbe9646e8	-0.29350972
132	0xbf0feacb	-0.5621764
133	0x3eae2635	0.34013525
134	0x3e01ae55	0.12664159
135	0xbf554fae	-0.83324707
136	0xbf048dba	-0.5177876
137	0x3db84b5a	0.08998747
138	0xbf8466d1	-1.0343877
139	0x3e9ea4b9	0.30985048
140	0x3f3a79c5	0.72842056
141	0xbf4065c4	-0.7515528
142	0xbf09fab9	-0.538982
143	0x3f241d45	0.6410716
144	0x3ee1bf5d	0.4409131
145	0xbefa6cda	-0.48911172
146	0xbf1fd8d9	-0.6244026
147	0x3f15ac0c	0.5846565
148	0x3f06b59d	0.5262087
149	0xbf86bee2	-1.0527003
150	0x3f5f98c6	0.8734249
151	0x3f46b92f	0.7762632
152	0xbf658691	-0.8965846
153	0xbe9197d7	-0.28436157
154	0xbf0d8fb2	-0.55297387
155	0xbeb749d6	-0.3579852
156	0x3f21b388	0.6316457
157	0xbd4d376d	-0.050101686
158	0xbf19bb5b	-0.60051507
159	0xbf25c672	-0.6475593
160	0xbf51dd81	-0.81978613
161	0x3e24eb22	0.16105321
162	0x3e02ca7a	0.12772551
163	0x3e7b4232	0.2453697
164	0x3c904e88	0.017615572
165	0xbee51b17	-0.4474723
166	0xbf01204f	-0.50439924
167	0x3f02053e	0.5078925
168	0x3d656cbf	0.05601191
169	0xbf9df5b0	-1.2340603
170	0xbf2efe07	-0.68356365
171	0xbde50639	-0.111828275
172	0xbf8189f7	-1.0120229
173	0x3d357433	0.04430027
174	0xbe923095	-0.2855269
175	0x3d8694b6	0.06571333
176	0x3f5cd648	0.8626447
177	0x3d0e9344	0.034808412
178	0xbea49d3e	-0.32151216
179	0xbed768fe	-0.4207229
180	0xbe9d6fc9	-0.30749348
181	0xbfa37b4d	-1.2772003
182	0x3e4ca840	0.19986057
183	0xbf2669ac	-0.6500499
184	0xbe972989	-0.29523876
185	0xbf9f76e2	-1.2458155
186	0xbf191d21	-0.5981007
187	0x3f0a86a8	0.5411172
188	0xbeaba98a	-0.33527786
189	0x3ee0b43c	0.43887508
190	0xbf4bc80f	-0.7960214
191	0xbdd964f4	-0.106149584
192	0xbdf0fd0f	-0.11767017
193	0xbf0109ef	-0.5040578
194	0x3e05d414	0.13069183
195	0xbd4d3a85	-0.050104637
196	0x3f15ae1b	0.5846879
197	0x3ebe1e70	0.37132597
198	0xbfa3c096	-1.2793148
199	0x3eeb9f13	0.46019801
200	0xbea6854b	-0.3252357
201	0x3dd55c0e	0.10417949
202	0xbfa4dde8	-1.288022
203	0xbf40035f	-0.75005144
204	0xbf9bcea8	-1.2172441
205	0xbef86fd5	-0.4852282
206	0xbc85233a	-0.016252149
207	0xbf9cc439	-1.2247382
208	0x3edf282b	0.43585333
209	0x3edbe633	0.42949066
210	0xbee28b79	-0.44247034
211	0xbf9c24a5	-1.2198683
212	0xbf89793a	-1.074012
213	0xbf055086	-0.52075994
214	0xbe830f19	-0.25597456
215	0x3ebc257d	0.3674735
216	0xbc99182c	-0.018688284
217	0xbe24ca8c	-0.1609289
218	0x3e9cf3d7	0.30654785
219	0xbfac97c1	-1.3483812
220	0xbf4e91e1	-0.80691344
221	0xbe4ff2d2	-0.20307472
222	0xbf699ef3	-0.9125816
223	0x3ec0c366	0.37649077
224	0xbf9319ce	-1.149225
225	0xbf6ea51c	-0.93220687
226	0xbf1ae39f	-0.6050357
227	0x3e99502f	0.29943988
228	0xbeea6936	-0.45783395
229	0x3e91cce2	0.28476626
230	0x3ee30993	0.44343242
231	0x3ca20c10	0.019781142
232	0xbd62f644	-0.05541064
233	0xbee268cb	-0.44220576
234	0xbf770de1	-0.9650555
235	0x3d71258b	0.058873694
236	0xbe846644	-0.25859272
237	0xbf7dc7a5	-0.9913276
238	0x3edae02e	0.4274916
239	0xbd8745dd	-0.06605122
240	0xbed63eed	-0.41844884
241	0xbe7dbacf	-0.24778293
242	0x3f4741be	0.7783469
243	0x3eef04db	0.46683392
244	0x3f2d1a90	0.67618656
245	0x3ec7e17d	0.3903922
246	0x3ef947eb	0.48687682
247	0x3ee2d646	0.44304103
248	0x3f4b4903	0.7940828
249	0xbf7bdb67	-0.98381656
250	0xbeaab2c6	-0.33339518
251	0xbe3d2b38	-0.18473518
252	0xbf22f5b5	-0.6365617
253	0x3ebcab60	0.368495
254	0x3ba79ecd	0.005115366
255	0x3e3e401b	0.18579142

utn.2.weight f4 [128, 256]
0	0xbe0166c7	-0.12636863
1	0x3db4784b	0.088120066
2	0x3d87f475	0.06638423
3	0xbbdff950	-0.0068351403
4	0x3da0ef5d	0.07858155
5	0xbc493bc3	-0.012282315
6	0x3dde2709	0.10847289
7	0xbda346b6	-0.079724714
8	0x3dc75234	0.09732476
9	0x3d3b10ab	0.045670193
10	0x3c2c989b	0.010534431
11	0x3dd047d6	0.101699516
12	0x3df22b3c	0.118246526
13	0x3d325c9b	0.043545347
14	0xbd6d10cb	-0.057877343
15	0x3abe63a4	0.0014525545
16	0x3d477bff	0.048702236
17	0xbd017256	-0.03160318
18	0x3e0d178a	0.1377851
19	0xbc174a76	-0.009234061
20	0x3d82a603	0.063793205
21	0x3d774ec4	0.06037785
22	0x3d341193	0.043962073
23	0xbda46bb1	-0.08028353
24	0x3d1e8220	0.038698316
25	0x3d3dd532	0.046345897
26	0x3db33942	0.087511554
27	0x39d3e616	0.00040416484
28	0xbba83942	-0.005133779
29	0x3d4c162d	0.049825836
30	0x3dbeb441	0.093117245
31	0x3dbada7f	0.09123706
32	0x3dcabac6	0.098989055
33	0x3d919a29	0.07109482
34	0x3d086eac	0.03330867
35	0xbbe5c443	-0.0070119216
36	0x3e0a8100	0.13525772
37	0x3d175b56	0.03695234
38	0x3d550f12	0.052016325
39	0xbdfdd031	-0.12393225
40	0x3c6a74a7	0.014310039
41	0x3d44643e	0.04794716
42	0x3d5a22ef	0.05325597
43	0xbd950b47	-0.072775416
44	0x3d964d8e	0.07339011
45	0x3d9663e4	0.073432714
46	0x3e0c71fb	0.13715355
47	0x3ce347ae	0.02774414
48	0xbdd5844c	-0.10425624
49	0x3db1c854	0.08680788
50	0xbc2f7424	-0.010708842
51	0xbd348e68	-0.04408112
52	0xbdb415f1	-0.087932475
53	0x3ca70ab9	0.020390855
54	0x3db4a0fb	0.08819767
55	0xbce9179b	-0.028453639
56	0x3d2fb74c	0.042899415
57	0x3e6f4acc	0.23368376
58	0x3df2a8ce	0.11848603
59	0x3d1b18fd	0.037865628
60	0xbc166961	-0.009180398
61	0x3cc92732	0.024554823
62	0xbc1c0994	-0.009523768
63	0x3bca22d4	0.0061687026
64	0x3ccbea17	0.024891896
65	0x3e26d634	0.1629265
66	0x3df18347	0.11792617
67	0x3d0d247c	0.034458622
68	0x3d86a868	0.0657509
69	0x3b6a0455	0.0035708148
70	0x3d44718e	0.047959857
71	0x3dfc7655	0.123272575
72	0x3e08acc6	0.13347158
73	0x3deb14d8	0.11478585
74	0x3d1d6947	0.03843048
75	0x3d80caed	0.06288705
76	0x3d23e447	0.040012624
77	0xbcc97665	-0.024592588
78	0xbc0e3643	-0.008679929
79	0x3daca8c3	0.08430626
80	0xbbfb7285	-0.007673564
81	0x3dada190	0.08478081
82	0x3dd66389	0.104682036
83	0x3e04203c	0.12902921
84	0x3d940d3f	0.07229089
85	0x3e4eaf1c	0.20183986
86	0x3dd1aa64	0.102375776
87	0x3d0bbe9c	0.034117326
88	0x3d23a95a	0.039956428
89	0xbb0fdf7c	-0.0021953275
90	0x3ddb6ba4	0.1071389
91	0x3aa82bc5	0.0012830427
92	0x3d92410b	0.07141312
93	0x3c298680	0.010347009
94	0x3d41b7a6	0.04729428
95	0x3c868e9b	0.016425421
96	0x3e14997c	0.14511675
97	0xbcb41ecf	-0.021987347
98	0x3cee3a41	0.029080512
99	0xbcc9e262	-0.02464408
100	0x3d90730d	0.07053194
101	0x3cfda2ad	0.030961359
102	0x3d01f618	0.031728834
103	0x3dfe648c	0.124215215
104	0x3d9c25a0	0.07624364
105	0x3dd057d6	0.101730034
106	0x3d1f865d	0.0389465
107	0x3d5ace36	0.053419314
108	0x3e521677	0.20516382
109	0x3de03ad1	0.10948718
110	0x3e2c8f47	0.16851531
111	0x3d26ff46	0.04077079
112	0x3d8cd777	0.06877034
113	0x3d8ee475	0.069771685
114	0xbd14e09b	-0.036347013
115	0x3dd3593e	0.10319756
116	0x3e3f41f6	0.18677506
117	0x3cd5e57f	0.026110409
118	0x3d46e038	0.048553675
119	0xbcd728af	-0.026264517
120	0xbc5b08ba	-0.01336878
121	0xbd912f85	-0.07089142
122	0x3da23f26	0.07922201
123	0x3e6d00bd	0.23144813
124	0x3ddf5334	0.109045416
125	0x3d2e7d96	0.042600237
126	0x3e52c5bc	0.20583242
127	0x3cd3f398	0.02587299
128	0x3d783b5e	0.060603492
129	0xbd650516	-0.055913053
130	0xbbee94b9	-0.0072809127
131	0x3c913d12	0.017729316
132	0xbd951a08	-0.07280356
133	0x3d9d88f9	0.07692141
134	0xbd74aefd	-0.059737194
135	0xbbb7b51f	-0.005606308
136	0xbd3a92e6	-0.04555025
137	0x3c152e3c	0.009105261
138	0x3c9ec324	0.01938016
139	0x3b6ececb	0.0036439176
140	0x3d271906	0.04079535
141	0xbac7b8f8	-0.001523762
142	0x3df5928b	0.119908415
143	0xbd4aa982	-0.04947806
144	0xbd408c9b	-0.04700909
145	0xbc41992e	-0.011816306
146	0x3dbf0489	0.09327037
147	0x3dd3649a	0.103219226
148	0x3d0f8b9d	0.035045255
149	0xbd9311a9	-0.07181103
150	0xbd0ef5cb	-0.034902375
151	0x3d3f26d0	0.046667874
152	0x3dd7d976	0.10539524
153	0xbd83a7a5	-0.0642846
154	0x3d6db6f7	0.058035817
155	0x3dbb6114	0.091493756
156	0xbd1a4361	-0.037661914
157	0xbd95a601	-0.07307053
158	0x3e4373bf	0.19087122
159	0x3d726dc1	0.0591867
160	0x3da31912	0.07963766
161	0x3ddce27c	0.10785386
162	0x3bdafd93	0.0066830604
163	0x3b75eea7	0.003752628
164	0x3daef78a	0.08543308
165	0x3e1e6b1a	0.15470544
166	0xbc20a9fd	-0.009806153
167	0x3dfadae0	0.12248778
168	0x3da6fa14	0.08153167
169	0x3d486c40	0.04893136
170	0x3d394079	0.0452275
171	0x3c643eca	0.013930986
172	0xbd3e815e	-0.046510093
173	0x3d18f251	0.037340466
174	0x3e1717d9	0.14755191
175	0x3da31c0e	0.079643354
176	0x3d39b76d	0.045340944
177	0x3daeeac2	0.0854087
178	0x3dbf6723	0.09345844
179	0xbc705fe7	-0.014671302
180	0x3e157b14	0.14597732
181	0x3c50453f	0.012711822
182	0xbc136469	-0.008996108
183	0x3d86aa76	0.065754816
184	0x3bdc5ba7	0.006724793
185	0x3e105f98	0.14098966
186	0x3de327a9	0.11091549
187	0xbd65821b	-0.05603228
188	0x3d57e003	0.05270387
189	0x3d9f6f42	0.077848926
190	0x3d38dfcb	0.0451353
191	0x3e15bea5	0.14623506
192	0x3ce1ca11	0.027562173
193	0x3d4b321d	0.04960834
194	0xbc3cb843	-0.011518541
195	0x3ddeeff7	0.108856134
196	0x3c3d68cb	0.011560629
197	0x3c8d291f	0.017231522
198	0x3c4bc735	0.012437631
199	0x3d3ca516	0.046055876
200	0xbc9be73a	-0.019031156
201	0x3e1b02d5	0.15137799
202	0xbcb6f11e	-0.02233177
203	0xbb82b727	-0.0039891186
204	0x3d1d9912	0.038476057
205	0x3e280a9d	0.16410299
206	0x3de4f31b	0.11179181
207	0x3d30a997	0.043130483
208	0x3c284445	0.010270183
209	0x3d218360	0.03943193
210	0x3d61e77f	0.055152413
211	0x3d4de7a6	0.050269745
212	0x3db949c0	0.0904727
213	0xbe0bf763	-0.1366859
214	0x3d083bfb	0.033260327
215	0x3ce1b0be	0.027550098
216	0xbdcaa7bd	-0.09895275
217	0x3e76c8ee	0.24100086
218	0x3d80b8ef	0.06285273
219	0xbd711ff8	-0.05886838
220	0x3d1b5649	0.037924085
221	0x3d768dd1	0.06019384
222	0x3c8aca0a	0.016942043
223	0x3d95b4c4	0.07309869
224	0x3cc9bb0c	0.024625324
225	0x3d744f6b	0.05964605
226	0xbbb59ff5	-0.00554275
227	0x3d7833c4	0.060596243
228	0x3d05837d	0.0325961
229	0x3dcbb7c3	0.09947159
230	0x3d3b4c0f	0.045726832
231	0xbd189593	-0.03725202
232	0x3dbb790d	0.09153948
233	0xbd3fb849	-0.046806607
234	0xbccef990	-0.025265485
235	0x3ddcf85c	0.10789558
236	0x3e07be1d	0.13256116
237	0x3dd0d19b	0.10196229
238	0xbc84a5e6	-0.016192388
239	0xbc31c6e9	-0.0108506465
240	0x3e15e081	0.14636423
241	0x3dec80e7	0.11548024
242	0xbd3937ba	-0.04521916
243	0x3e0a1515	0.13484605
244	0xbc92bf06	-0.017913353
245	0xba739c56	-0.000929301
246	0xbce8edc2	-0.028433684
247	0x3d48f49c	0.049061403
248	0x3d264aae	0.040598564
249	0xbda96e24	-0.08272961
250	0x3d45898d	0.04822688
251	0xbd49e482	-0.049290188
252	0x3d96fe02	0.07372667
253	0xbca11fd6	-0.0196685
254	0x3dfc4b56	0.12319057
255	0x3d518091	0.051148

utn.2.bias f4 [128]
0	0x3d07263a	0.03299544
1	0x3c36ce4f	0.011157586
2	0x3ea5ba97	0.3236892
3	0xbdbf9152	-0.093538895
4	0xbda219f1	-0.07915104
5	0x3d9fc501	0.078012474
6	0x3db48323	0.08814075
7	0x3d053242	0.032518633
8	0xbd1c5815	-0.03816994
9	0xbceca24d	-0.028885985
10	0xbe9eacf5	-0.3099133
11	0x3da0ab3a	0.07845159
12	0x3da88916	0.08229272
13	0xbc8c5bfc	-0.017133705
14	0xbdd78645	-0.10523657
15	0x3eb859be	0.36005968
16	0xbe5f517c	-0.21808428
17	0xbea4fb19	-0.32222822
18	0x3d9fb97f	0.077990524
19	0xbde023c8	-0.10944325
20	0x3db48908	0.08815199
21	0x3de27c08	0.11058813
22	0xbe9af476	-0.30264634
23	0x3cedc91f	0.029026566
24	0x3d90205d	0.07037423
25	0x3d88194f	0.06645452
26	0x3e668c4d	0.22514458
27	0x3d504683	0.050848495
28	0xbbd3cd5a	-0.006463689
29	0x3d60835d	0.054812778
30	0xbd9d8351	-0.07691062
31	0x3ddc147e	0.10746096
32	0x3ce04d15	0.027380506
33	0xbea6d333	-0.32583007
34	0xbddfa6f5	-0.109205164
35	0xbe9b8990	-0.3037839
36	0x3e969217	0.29408333
37	0xbde6a5eb	-0.11262115
38	0xbd011741	-0.031516317
39	0xbdda72b2	-0.10666408
40	0xbe43e434	-0.19130021
41	0xbdaeb3ba	-0.08530374
42	0xbde12e25	-0.109951295
43	0x3eb91eb1	0.36156228
44	0x3e7fb0c1	0.2496977
45	0xbe24988e	-0.1607382
46	0x3d970e1f	0.0737574
47	0x3c8c1f27	0.017104698
48	0x3d0ff493	0.035145354
49	0xbdfa13b1	-0.12210787
50	0xbe0cc7b5	-0.13748057
51	0xbc8a106f	-0.01685354
52	0x3d447337	0.04796144
53	0xbeb46e83	-0.35240564
54	0xbca6fb41	-0.02038348
55	0x3dbee481	0.093209274
56	0x3dde38e5	0.108506955
57	0xbe2d9d5b	-0.16954558
58	0xbddfc32d	-0.10925899
59	0xbe859a74	-0.260944
60	0xbd2656a2	-0.040609963
61	0xbec047c1	-0.37554744
62	0xbd803e18	-0.062618434
63	0xbd9f60f9	-0.07782168
64	0xbdf4992d	-0.119432785
65	0x3e2fab38	0.17155159
66	0xbd59f136	-0.053208552
67	0xbd5264f4	-0.051365808
68	0xbb35b0d6	-0.002772381
69	0xbc128520	-0.008942872
70	0xbbad17b0	-0.005282365
71	0xbda35c59	-0.07976598
72	0x3da79006	0.08181767
73	0x3d778c27	0.060436394
74	0x3de8fbc3	0.11376145
75	0xbdfa6f44	-0.122282535
76	0xbdc63278	-0.09677595
77	0xbe5c4f75	-0.21514685
78	0xbd096c6c	-0.033550665
79	0xbdbf1fea	-0.09332259
80	0xbcb13b97	-0.02163486
81	0x3dc63c1e	0.09679435
82	0xbddbda58	-0.10735005
83	0x3eae0a71	0.3399234
84	0x3c10b8f6	0.008833161
85	0xbc7a8e04	-0.015292648
86	0x3d84471d	0.06458876
87	0xbde23b52	-0.11046471
88	0xbd9671e3	-0.07345941
89	0x3dc7a728	0.097486794
90	0xbd00f7f0	-0.03148645
91	0xbcf25889	-0.029583232
92	0xbe27ae62	-0.16375116
93	0x3cee2ed7	0.02907507
94	0xbcb61866	-0.022228431
95	0x3d8c1e6d	0.06841741
96	0x3f19a46c	0.6001651
97	0x3d5d22c1	0.053988222
98	0xbd8e7425	-0.069557466
99	0x3e5a0b77	0.21293436
100	0x3eb7c2c8	0.35890794
101	0xbdc99458	-0.098427474
102	0xbc891c94	-0.01673726
103	0xbd753133	-0.059861373
104	0x3c450963	0.012026164
105	0x3d884c32	0.06655158
106	0xba7cfcd6	-0.00096507126
107	0xbdd81dec	-0.10552582
108	0xbd9928b6	-0.07478468
109	0x3d4cd15d	0.050004352
110	0x3d8d96f2	0.06913556
111	0xbd2e3746	-0.04253318
112	0x3c4633b1	0.012097285
113	0x3d5b17d5	0.053489525
114	0xbd47d8d4	-0.048790768
115	0xbd8b9d31	-0.06817091
116	0x3ec8eed2	0.39244705
117	0x3dd160bc	0.10223529
118	0xbbc32dd9	-0.005956393
119	0xbdc42a9e	-0.09578441
120	0x3eab8e7f	0.33507153
121	0x3c6d59e0	0.01448676
122	0x3ce313cc	0.0277194
123	0x3ec4339b	0.38320622
124	0x3d6817fa	0.05666349
125	0x3df5cd70	0.12002075
126	0x3da72f68	0.08163339
127	0xbdd2fb71	-0.10301865

utn.4.weight f4 [15, 128]
0	0xbea10b47	-0.31453916
1	0xbedac0ac	-0.42725122
2	0xbea26cfb	-0.3172377
3	0x3e0314eb	0.12800948
4	0xbbe493a4	-0.006975608
5	0xbebb4a5c	-0.3658017
6	0xbe610d5b	-0.21977751
7	0xbeb2381c	-0.34808433
8	0x3ad45886	0.0016200698
9	0xbd9dc118	-0.07702845
10	0xbd29e354	-0.041476563
11	0xbd13fce3	-0.036129843
12	0xbeaf0c8d	-0.34189263
13	0xbe8b1bb7	-0.27169582
14	0x3db31504	0.08744243
15	0xbf194a8a	-0.5987936
16	0xbd1a0be7	-0.037609007
17	0x3dae127f	0.084996216
18	0xbe901e76	-0.2814824
19	0xbdce0e3a	-0.10061307
20	0xbe7f75d5	-0.24947293
21	0xbe80370f	-0.25042006
22	0xbe843000	-0.2581787
23	0xbe7f46b1	-0.2492931
24	0xbe59f555	-0.21284993
25	0xbf13af1b	-0.57689065
26	0xbd71a2c4	-0.058993116
27	0xbe14a291	-0.14515139
28	0xbdd84adc	-0.10561153
29	0xbe996adc	-0.2996434
30	0xbe96d7c6	-0.29461497
31	0xbec4d213	-0.38441524
32	0xbe7012e7	-0.2344471
33	0xbe305947	-0.17221557
34	0xbe3fd44d	-0.1873333
35	0x3eb0bbbc	0.3451823
36	0xbe56cf6d	-0.20977564
37	0x3d6008a6	0.054695748
38	0x3ddbabcc	0.10726127
39	0xbe6cf8ec	-0.23141831
40	0xbe228aa5	-0.15873201
41	0xbe113c34	-0.14183122
42	0xbe308b4e	-0.1724064
43	0xbe8115b6	-0.25211877
44	0xbe03efcd	-0.12884445
45	0x3dc9b2ff	0.09848594
46	0xbea3694b	-0.3191627
47	0xbecaaeda	-0.39586526
48	0xbeabfe73	-0.33592567
49	0x3c4ea7be	0.012613235
50	0xbe2c4bb6	-0.16825756
51	0x3c2927a8	0.010324396
52	0xbee4f4cf	-0.44718024
53	0x3e4017b5	0.18759044
54	0xbeca74d4	-0.39542258
55	0xbea681c9	-0.32520893
56	0xbe6eb8f9	-0.23312749
57	0xbd48a06f	-0.048981126
58	0xbd38777f	-0.045035835
59	0xbcfc8a1b	-0.030827573
60	0x3e060b3c	0.13090223
61	0xbd6dfcce	-0.05810242
62	0xbe966726	-0.2937557
63	0x3db9923b	0.090610944
64	0xbd9885c8	-0.07447392
65	0xbf03ba96	-0.5145658
66	0xbbb9ff88	-0.0056762137
67	0x3d925c7e	0.07146548
68	0xbdca6c13	-0.09883895
69	0xbe122f26	-0.14275798
70	0x3df965cf	0.121776216
71	0xbc3d7e79	-0.011565798
72	0xbe96e1c0	-0.2946911
73	0xbf067d89	-0.525353
74	0xbe529123	-0.20563178
75	0xbe4fa6c6	-0.20278463
76	0xbd8344a6	-0.06409578
77	0x3e3438fd	0.17599864
78	0xbdce5b84	-0.10076049
79	0xbf1de7da	-0.616819
80	0xbe54137d	-0.20710559
81	0xbeaaefd7	-0.33386108
82	0x3dc72a4e	0.09724866
83	0xbdd345c0	-0.10316038
84	0xbdb52c78	-0.08846372
85	0xbdab19c5	-0.083545245
86	0xbec63676	-0.38713425
87	0xbdad53c0	-0.0846324
88	0xbdd6b908	-0.10484511
89	0xbeb5d374	-0.35512888
90	0xbc5baab7	-0.013407401
91	0xbc97e80e	-0.01854327
92	0x3c5c5e0b	0.013450156
93	0xbe497a7f	-0.19675635
94	0xbe91ae06	-0.28453082
95	0xbed32490	-0.41238832
96	0xbee4a146	-0.44654292
97	0xbebe63e6	-0.3718559
98	0xbeaf0658	-0.34184527
99	0xbeae474a	-0.34038764
100	0xbee3410b	-0.4438556
101	0xbe52c8bb	-0.20584385
102	0xbeb81fec	-0.35961854
103	0x3e086ee9	0.13323559
104	0xbe1fc47e	-0.156023
105	0xbe2d304a	-0.16912952
106	0xbd6d17f2	-0.057884164
107	0xbdf5a143	-0.11993649
108	0x3d30744f	0.04307967
109	0xbd281de2	-0.041044123
110	0xbece2683	-0.40263757
111	0xbdcc8463	-0.09986188
112	0xbe611868	-0.21981966
113	0xbdfb6963	-0.1227596
114	0xbe2b2379	-0.1671275
115	0xbc437b13	-0.011931199
116	0xbeb4b183	-0.3529168
117	0xbebe06cb	-0.37114558
118	0xbeb7ee31	-0.35923913
119	0x3d367754	0.044547394
120	0xbf2b1125	-0.66823035
121	0xbebf8116	-0.37403172
122	0xbe6a4acd	-0.22880097
123	0xbe971e24	-0.29515183
124	0xbe979b59	-0.29610708
125	0xbe214f0b	-0.15752809
126	0xbeadbd34	-0.33933413
127	0xbdf80491	-0.12110246
128	0xbea7084a	-0.32623512
129	0xbcb624a6	-0.022234272
130	0xbdc25d8f	-0.09490501
131	0x3d373943	0.044732343
132	0x3e068889	0.13138022
133	0xbe9ea3f5	-0.30984464
134	0xbe59864b	-0.21242635
135	0xbea2e563	-0.31815633
136	0x3d2e6cd3	0.04258425
137	0x3cf4e267	0.029893113
138	0xbd99ea3d	-0.075153805
139	0xbdd24636	-0.10267298
140	0xbe8e1d29	-0.27756622
141	0xbe1b1614	-0.15145141
142	0x3bd60f46	0.0065325825
143	0x3cb48904	0.02203799
144	0x3dc9340c	0.0982438
145	0xbcf75d70	-0.030195922
146	0xbe8cd7d2	-0.27508408
147	0xbd9bb3b5	-0.07602636
148	0xbdf524eb	-0.11969932
149	0xbdc68788	-0.09693819
150	0xbe11887f	-0.14212225
151	0xbe8c3e50	-0.2739129
152	0xbea1ccb6	-0.31601495
153	0xbed0cde3	-0.4078208
154	0xbdf6b400	-0.12046051
155	0xbd9eb2b0	-0.07748926
156	0x3d09b4ed	0.03361981
157	0xbe1cdbfe	-0.15318295
158	0xbdaed038	-0.08535808
159	0xbe791b08	-0.24326718
160	0xbe2442d7	-0.16041122
161	0xbe03c49b	-0.12867968
162	0xbd8dc487	-0.0692225
163	0xbdb8988f	-0.09013473
164	0xbde19413	-0.11014571
165	0xbcf17993	-0.029476916
166	0xbdd28004	-0.10278323
167	0xbc2dc807	-0.010606772
168	0xbde4f373	-0.11179247
169	0xbd708196	-0.058717333
170	0xbe26bbfd	-0.1628265
171	0xbd87c2a0	-0.06628919
172	0xbe8defdc	-0.2772206
173	0xbdb9d97b	-0.09074684
174	0xbe4884f5	-0.19581969
175	0xbea574be	-0.3231563
176	0xbe7d756c	-0.24751824
177	0xbdd60fcb	-0.10452231
178	0xbd2bdf7b	-0.041961174
179	0xbd05c730	-0.032660663
180	0xbe1b93a0	-0.15193033
181	0x3e125910	0.14291787
182	0x3e467cb0	0.19383502
183	0xbe89afec	-0.2689203
184	0xbda0984a	-0.07841547
185	0xbdfe8e14	-0.12429443
186	0x3e3bdeb2	0.1834667
187	0xbdeb045a	-0.11475439
188	0x3dcb1bfe	0.099174485
189	0xbd127035	-0.03575154
190	0xbda1a929	-0.07893593
191	0x3d2bcdfe	0.041944496
192	0xbd2727d6	-0.040809475
193	0xbe0bbda9	-0.13646568
194	0x3c92b4a8	0.01790841
195	0xbcc0da03	-0.023541456
196	0xbdd7ded3	-0.10540547
197	0xbdaac91a	-0.08339138
198	0xbd19119b	-0.037370306
199	0x3ce832db	0.028344562
200	0xbe0841ce	-0.13306352
201	0xbe1d49f0	-0.15360236
202	0xbdc28568	-0.094981015
203	0xbdba8bff	-0.091087334
204	0xbde34569	-0.11097223
205	0x3bdbf0e5	0.0067120665
206	0xbcad976f	-0.021190373
207	0xbe09b0b2	-0.1344631
208	0x3d6466c4	0.055762067
209	0xbd7ab49a	-0.06120739
210	0xbd94325c	-0.07236168
211	0x3d1955b3	0.037435245
212	0xbe3ccab2	-0.18436697
213	0x3dbbefbe	0.091765866
214	0xbe379752	-0.17928818
215	0x3dcb1ab7	0.09917205
216	0x3ca388ae	0.019962635
217	0xbd92ad6c	-0.07161984
218	0x3db50dcc	0.08840522
219	0x3d102683	0.035192978
220	0x3d4571d0	0.048204243
221	0xbe80f4a7	-0.25186655
222	0xbd96f0c8	-0.07370144
223	0xbe5b430c	-0.21412295
224	0xbdf4225b	-0.11920615
225	0xbe0c2e2d	-0.1368949
226	0x3beaf75a	0.0071706
227	0xbe34f2c1	-0.17670728
228	0x3d111496	0.035420023
229	0xbdd38622	-0.10328318
230	0xbd8d775e	-0.06907533
231	0x3b49dbfa	0.0030801282
232	0x3c3d1e8e	0.011542929
233	0xbd885044	-0.066559345
234	0xbd8345b7	-0.064097814
235	0x3b84cb65	0.004052567
236	0x3d05a3df	0.032626983
237	0xbcd1e868	-0.025623515
238	0xbed33fe8	-0.41259694
239	0xbe5b8774	-0.2143839
240	0xbe3ca1bd	-0.18421073
241	0xbe81f328	-0.25380826
242	0x3bbf92c4	0.0058463532
243	0x3d0f544b	0.034992497
244	0xbe21cc44	-0.15800577
245	0xbe89d4a1	-0.26920035
246	0xbe8ff572	-0.28116947
247	0x3d5b3357	0.05351576
248	0xbcb9b8bd	-0.022671098
249	0xbe7b8223	-0.24561362
250	0xbde0f497	-0.10984152
251	0xbd8c9c6c	-0.068657726
252	0xbe930536	-0.28714913
253	0xbe63645e	-0.22206256
254	0xbeb7ace6	-0.358741
255	0xbc9700a7	-0.018432928

utn.4.bias f4 [15]
0	0xbec41252	-0.38295227
1	0xbdef794b	-0.11693057
2	0xbea1e350	-0.31618738
3	0xbea878d9	-0.329047
4	0xbe3f6feb	-0.18695037
5	0xbe9b7def	-0.30369517
6	0xbe20b829	-0.15695252
7	0xbed627f0	-0.41827345
8	0xbe40a468	-0.18812716
9	0xbe5ed72d	-0.2176177
10	0xbe3b9c55	-0.18321355
11	0x3c70c6e9	0.014695861
12	0xbdf64379	-0.12024588
13	0xbe988a18	-0.29792857
14	0xbe6ee02d	-0.23327704

itn.0.weight f4 [256, 2]
0	0xbf05c11a	-0.52247775
1	0xc02b9d29	-2.6814673
2	0xbf22442a	-0.6338526
3	0xbfa4250c	-1.2823806
4	0x3f5ed476	0.8704294
5	0xc017edea	-2.3738961
6	0xbea1cc1b	-0.31601033
7	0xbfc31a95	-1.5242487
8	0xbe94b288	-0.2904246
9	0xbf8b3d31	-1.0878049
10	0xbf8bf39d	-1.093372
11	0xbfec9459	-1.8482772
12	0xbecc6435	-0.39920202
13	0xbfe3622e	-1.7764337
14	0x4039fbba	2.9059892
15	0xbfdbe8df	-1.7180442
16	0xbf1aa207	-0.60403484
17	0xbfd447f9	-1.6584464
18	0xbe7b2591	-0.24526049
19	0xbfa9b8a9	-1.3259479
20	0xbf59bc33	-0.85052794
21	0xc036a9b4	-2.8541079
22	0xbf5c0146	-0.85939443
23	0xc04ad7f4	-3.1694307
24	0xbe8a1254	-0.26967108
25	0xbfa725fb	-1.3058466
26	0xbe8508f4	-0.25983393
27	0xbfa7f2ed	-1.312101
28	0xbd6fa580	-0.058507442
29	0xbfacca3d	-1.3499218
30	0xbe4175d2	-0.18892601
31	0xc0243b44	-2.5661173
32	0xbf00b957	-0.50282806
33	0xc01cf778	-2.4526043
34	0xbfa83a56	-1.3142803
35	0xc0271306	-2.610536
36	0xbe9d57e0	-0.30731106
37	0xc012ee8d	-2.29581
38	0xbf4d532f	-0.80205053
39	0xbfc43b1c	-1.5330539
40	0xbf91defd	-1.1396176
41	0xbff8e2ad	-1.9444176
42	0xbdd0ae42	-0.10189487
43	0xbfb03bcb	-1.3768247
44	0xbfa24846	-1.2678306
45	0xc03e2925	-2.9712613
46	0xbf01ca73	-0.5069954
47	0xbfd24ef1	-1.6430341
48	0xbecb7f43	-0.3974553
49	0xc04e3fe0	-3.2226486
50	0xbf8e7aa0	-1.1131172
51	0xbf75c67d	-0.96005994
52	0xbe5bb14e	-0.21454355
53	0xbf9883a2	-1.1915171
54	0xbf43676e	-0.76329696
55	0xc05aee11	-3.4207804
56	0xbee42244	-0.44557393
57	0xc0248b06	-2.5709853
58	0xbec2519f	-0.37952897
59	0xbfa11492	-1.2584403
60	0xbf101373	-0.5627968
61	0xbfd2cc74	-1.6468644
62	0xbf8fc4d2	-1.123194
63	0xc013c18f	-2.3086889
64	0xbf0011ef	-0.50027364
65	0xbfbd2298	-1.4776182
66	0xbf2a2fa7	-0.6647896
67	0xbfe45ecb	-1.7841429
68	0xbed8e9da	-0.42365915
69	0xbfa862ac	-1.3155112
70	0xbf6e4e36	-0.9308809
71	0xbfce908d	-1.6137863
72	0xbf332a35	-0.6998628
73	0xbfbdf0b9	-1.4839088
74	0xbf2762b2	-0.6538497
75	0xc029bd1d	-2.6521676
76	0xbee29f20	-0.44262028
77	0xc052c70c	-3.2933989
78	0xbf5ea2e3	-0.86967295
79	0xc07bdce4	-3.935357
80	0xbf336c85	-0.7008746
81	0xbfdd3136	-1.7280643
82	0xbea3df77	-0.32006428
83	0xbf947f39	-1.1601325
84	0xbea75e3d	-0.32689086
85	0xbf8e1df3	-1.110289
86	0xbeb15439	-0.3463457
87	0xbfd27a1e	-1.6443517
88	0xbef706c4	-0.4824735
89	0xbf8e9568	-1.1139345
90	0xbeccec40	-0.40023994
91	0xbff46067	-1.909192
92	0xbf2c5809	-0.6732183
93	0xc01d05d4	-2.4534807
94	0xbefe9080	-0.4971962
95	0xc0198739	-2.3988783
96	0xbf4d065b	-0.8008782
97	0xbfd54047	-1.6660241
98	0xbee12ad6	-0.43977994
99	0xbfb80da0	-1.4379158
100	0xbf82f4da	-1.0230973
101	0xc01a99e8	-2.4156437
102	0xbf6321f2	-0.8872367
103	0xbfcc9c81	-1.5985261
104	0xbf43299c	-0.76235366
105	0xc052972c	-3.2904768
106	0xbf1354d2	-0.575513
107	0xc007fd3c	-2.1248312
108	0x3e95fc38	0.2929399
109	0xc00cc870	-2.1997337
110	0xbf0dbd91	-0.5536738
111	0xbfaf303f	-1.3686599
112	0xbf6ac0d3	-0.91700476
113	0xc080f6e4	-4.030138
114	0xbf389729	-0.7210565
115	0xbfef4c6f	-1.8695201
116	0xbf3c37a2	-0.7352239
117	0xbfe6e987	-1.8040017
118	0xbf8e9d91	-1.1141835
119	0xc01bc1eb	-2.4337108
120	0xbf83b114	-1.0288415
121	0xbff2b1a3	-1.896046
122	0x40b5ebd6	5.6850386
123	0xbf52603f	-0.8217811
124	0xbf19b22d	-0.600375
125	0xc01d3242	-2.4561925
126	0xbea197e3	-0.31561193
127	0xbfae8673	-1.3634781
128	0xbf343107	-0.7038731
129	0xbfd727d4	-1.680903
130	0xbf259a02	-0.6468812
131	0xc0017a20	-2.023079
132	0xbe7caa06	-0.24674234
133	0xbfa3eb43	-1.2806171
134	0x3eb72b3a	0.35775167
135	0xc0109aad	-2.2594407
136	0xbf7c318c	-0.985131
137	0xbfd69522	-1.6764262
138	0xbf1875bd	-0.59554654
139	0xbfab85bf	-1.3400191
140	0xbe1bf4bd	-0.15230079
141	0xc015a193	-2.3379867
142	0xbf139e34	-0.57663274
143	0xbfdbb5cf	-1.7164859
144	0xbe7cb71f	-0.2467923
145	0xbf9ef602	-1.2418826
146	0xbf1cb2cd	-0.6121033
147	0xbfc09a2a	-1.5047047
148	0xbf571ea4	-0.8403113
149	0xbfd47194	-1.6597161
150	0xbfab80ee	-1.3398721
151	0xc0464a3d	-3.0982811
152	0xbf8e65ef	-1.1124858
153	0xbff805f5	-1.9376818
154	0xbf47dc7e	-0.7807082
155	0xc037695e	-2.865806
156	0xbfb12d02	-1.384186
157	0xc01eec3c	-2.4831686
158	0xbfb040d4	-1.3769784
159	0xbfe013d9	-1.7506057
160	0xbedfe4f8	-0.43729377
161	0xc03c311b	-2.9404972
162	0xbf125d9f	-0.57174104
163	0xbfdd1ccb	-1.7274412
164	0xbf24b257	-0.64334625
165	0xbfd940a0	-1.6972847
166	0xbf36cec7	-0.7140927
167	0xbfabf0a2	-1.343281
168	0xbf36e3b7	-0.71441215
169	0xc018aca7	-2.3855379
170	0xc0762754	-3.8461504
171	0x3e85bccf	0.26120612
172	0xbdae964b	-0.0852476
173	0xc01a8946	-2.4146285
174	0xbf435f66	-0.7631744
175	0xc00b6f98	-2.1786861
176	0xbf689287	-0.90848583
177	0xc00532c0	-2.0812225
178	0x3fdfe776	1.7492511
179	0xbff5ab44	-1.9192891
180	0xbf2dee0d	-0.6794136
181	0xbfbae996	-1.4602535
182	0xbedca182	-0.4309197
183	0xbfc22303	-1.5166935
184	0xbf1528b7	-0.5826525
185	0xc02df617	-2.7181451
186	0xbf27a5dd	-0.6548746
187	0xc04f9230	-3.2432976
188	0xbee4a788	-0.44659066
189	0xc0355127	-2.8330781
190	0xbf00de1d	-0.5033892
191	0xbfc1ee26	-1.5150802
192	0xbf61d04f	-0.8820848
193	0xc0426fe4	-3.0380793
194	0xbe9a9eb3	-0.30199203
195	0xc041d6db	-3.0287387
196	0xbf1383ca	-0.5762297
197	0xbfe2548d	-1.7682053
198	0xbf3e53e9	-0.74346787
199	0xbfd593b9	-1.6685706
200	0xbf63a773	-0.8892738
201	0xc025f91e	-2.59333
202	0xbf2e73fd	-0.68145734
203	0xbfde25a0	-1.7355232
204	0x3f35f532	0.71077263
205	0xc01d6dde	-2.4598308
206	0xbfb95dad	-1.4481713
207	0xc01c58ee	-2.4429278
208	0xbf0624cc	-0.523999
209	0xc0450b19	-3.0788023
210	0x3edec614	0.43510497
211	0x3fbb6dca	1.464288
212	0xbfa60e03	-1.2973026
213	0xc03bc7a2	-2.9340596
214	0xbf589689	-0.846047
215	0xbfca10ce	-1.5786378
216	0xbf341d5e	-0.7035731
217	0xc04e35c6	-3.222032
218	0xbf116a5f	-0.56802934
219	0xbfaa15c9	-1.3287898
220	0xbe8c73eb	-0.27432188
221	0xbfab8947	-1.3401269
222	0xbf1d30cb	-0.6140258
223	0x3d4bddac	0.04977195
224	0x3ed5176e	0.41619438
225	0xc01fb481	-2.495392
226	0xbf35c945	-0.7101024
227	0xc028d550	-2.6380196
228	0xbf765460	-0.96222496
229	0xc03f1442	-2.9856114
230	0xbe5a4d1b	-0.21318476
231	0xbfd41d05	-1.6571356
232	0x3ec2e804	0.3806764
233	0xc001209e	-2.0176158
234	0xbe9c4ece	-0.30528873
235	0xbfce5515	-1.6119715
236	0xbf023e53	-0.5087635
237	0xbfcb0a8b	-1.5862592
238	0xbf44619d	-0.76711446
239	0xbffb7fdd	-1.9648396
240	0xbed0e416	-0.40799016
241	0xbfbe7ca0	-1.4881783
242	0x3ce04d55	0.027380625
243	0xc00f03de	-2.234611
244	0xbfa586ab	-1.2931722
245	0xc0141cc2	-2.3142552
246	0xbe3f75be	-0.18697259
247	0xbfab2ba8	-1.3372698
248	0xbe77faba	-0.24216738
249	0xc0435e98	-3.0526485
250	0xbf98fe10	-1.1952534
251	0xbff86783	-1.9406589
252	0xbf703acc	-0.93839717
253	0xc045e49d	-3.0920784
254	0xbe251ec0	-0.16125011
255	0xc01f38dc	-2.4878454

itn.0.bias f4 [256]
0	0xbf73658e	-0.95076835
1	0xbf369070	-0.71314144
2	0xbfe9bc98	-1.8260679
3	0xbf820e3b	-1.0160593
4	0xbf4912de	-0.78544414
5	0xbe4f8e85	-0.2026921
6	0xbf7e725b	-0.9939324
7	0xc081a09a	-4.0508547
8	0xbe1cbd4f	-0.1530659
9	0xbf5f28c2	-0.87171566
10	0xbf8e2b6b	-1.1107
11	0xbe5e40c1	-0.21704389
12	0xbe84114b	-0.25794443
13	0xbf0290e3	-0.5100233
14	0xbf0c7244	-0.54861856
15	0xbdf683f0	-0.12036884
16	0xbf3b324b	-0.73123616
17	0xbf835f10	-1.0263386
18	0xbf8feccf	-1.1244143
19	0xbd58e0a1	-0.052948598
20	0x3e5da065	0.21643217
21	0xbe9ac854	-0.30230963
22	0xbf82a66a	-1.0207036
23	0xbefb8f8e	-0.4913296
24	0xbe945191	-0.2896848
25	0xbfee6d69	-1.8627139
26	0xbf8b3eef	-1.0878581
27	0xbf28695c	-0.65785766
28	0xbec955b8	-0.3932321
29	0xbecf6e34	-0.40513766
30	0xbe8b743e	-0.27237123
31	0xbf37cef2	-0.7180015
32	0xbeaf0b8a	-0.3418849
33	0xbfa7dcdb	-1.3114275
34	0xbed83c4f	-0.42233512
35	0xbd00cc4d	-0.031444836
36	0xbe54dde6	-0.20787773
37	0xbf65c530	-0.8975401
38	0xbebc28b4	-0.36749804
39	0xbeb93f69	-0.3618119
40	0xbf0ac615	-0.542085
41	0xbf0518b1	-0.519908
42	0xbf634ed4	-0.8879216
43	0x3e34a99d	0.17642827
44	0xbfa861b3	-1.3154815
45	0xbf574da3	-0.8410284
46	0xbedb6e61	-0.4285765
47	0xbfb67fb5	-1.4257723
48	0xbf00330c	-0.5007789
49	0xbd89dcce	-0.06731568
50	0xbf7fce9c	-0.99924636
51	0xbdf5466b	-0.11976322
52	0xbef8441e	-0.4848947
53	0xbec896cd	-0.39177552
54	0xc00e2ce1	-2.2214892
55	0xbf3741eb	-0.7158496
56	0xc0503bb2	-3.2536435
57	0xbf2071c9	-0.6267362
58	0xbea7fdf7	-0.32810947
59	0xbf6ff126	-0.9372734
60	0xbea98d0e	-0.3311543
61	0xc0a529b7	-5.161342
62	0xbf297049	-0.6618696
63	0xbf81d9bf	-1.0144576
64	0xbdb8c505	-0.090219535
65	0xbe9721c3	-0.29517946
66	0xbe2549d5	-0.16141446
67	0xc00a110d	-2.1572907
68	0x3e660f89	0.22466864
69	0xbe9af904	-0.3026811
70	0xbfa286f2	-1.2697432
71	0xbf2466c7	-0.64219326
72	0xbf4394e2	-0.7639905
73	0x3dc0325a	0.09384604
74	0xbf0a78c7	-0.5409054
75	0xbfb04243	-1.3770221
76	0x3e0728b2	0.13199118
77	0xbf1ce762	-0.6129056
78	0xbf2a58c7	-0.66541713
79	0xbf4fd2a8	-0.8118081
80	0xbed0bdcd	-0.40769807
81	0xbf17c5e5	-0.5928634
82	0xbd9c1ad0	-0.076223016
83	0x3df24111	0.11828817
84	0xbfc43fcf	-1.5331973
85	0x4042ee73	3.0458038
86	0x3efb67dd	0.4910268
87	0xbf8432a0	-1.032795
88	0xbe9b6943	-0.30353746
89	0xc005c323	-2.0900352
90	0xbf204c33	-0.6261627
91	0xbf0988ae	-0.5372418
92	0xbe636a25	-0.2220846
93	0xbf4ba633	-0.79550475
94	0xbf7dfa68	-0.99210215
95	0xbf3261b3	-0.6968033
96	0xbf8d5542	-1.1041644
97	0xbd96387d	-0.07334993
98	0xbf5eafc6	-0.8698696
99	0xbda4f622	-0.080547586
100	0xbed42227	-0.41432306
101	0xbf0252d2	-0.50907624
102	0xbfec5783	-1.8464206
103	0xbe6e07ba	-0.23245135
104	0xc02eebbc	-2.733138
105	0x3ed6b692	0.41936165
106	0xbfe386b8	-1.7775488
107	0xbefeac27	-0.49740717
108	0xbf71298b	-0.94204015
109	0x3c756cba	0.014979536
110	0xbf2c1db0	-0.672328
111	0xbfce7351	-1.6128942
112	0xc02de980	-2.7173767
113	0xbef9f03c	-0.48816097
114	0xbf0e6929	-0.5562921
115	0xbf810769	-1.0080386
116	0xbfdd246e	-1.7276742
117	0xbf6d5832	-0.927127
118	0xbf2c2186	-0.6723865
119	0xbf4e6cf3	-0.80634993
120	0xbf38c76b	-0.7217929
121	0xc00f5f09	-2.2401755
122	0xbd653474	-0.055958226
123	0xbf5b8590	-0.85750675
124	0xbf4f94af	-0.8108625
125	0xbf04a1df	-0.51809496
126	0xbfed87ed	-1.8557106
127	0xbf4f40fa	-0.8095852
128	0xbf57ceb9	-0.8429981
129	0xbe78b760	-0.24288702
130	0x3e7c923c	0.24665159
131	0xbead6185	-0.33863464
132	0xbf2fe23c	-0.6870458
133	0xbe7efa36	-0.24900135
134	0x3e7b727d	0.24555393
135	0xbede6805	-0.43438736
136	0xbed3ca48	-0.41365266
137	0xbdb75959	-0.089525886
138	0x3c4304ce	0.011903001
139	0xbf4f4284	-0.8096087
140	0xbfc3bded	-1.5292336
141	0xbfd0fe6e	-1.6327646
142	0xbf15f11f	-0.58571047
143	0xbd134d4b	-0.035962384
144	0xbe90a9d7	-0.28254578
145	0xbf88fd70	-1.0702343
146	0xbf8e0839	-1.1096259
147	0x3e679dba	0.22618762
148	0xbf4163dd	-0.75543004
149	0xc0841abb	-4.128263
150	0xbe416fc0	-0.18890285
151	0xbfbdc7b3	-1.4826568
152	0xc001919c	-2.0245123
153	0xbf54bb73	-0.83098525
154	0xbe0f4ed4	-0.13994914
155	0xbf1068b6	-0.56409776
156	0xbf00c75a	-0.50304186
157	0xbfab4b96	-1.3382442
158	0xbf4bf2de	-0.7966746
159	0x3e84a6ea	0.25908595
160	0x3d8c74f6	0.06858246
161	0xbf12f368	-0.5740266
162	0xbea85e64	-0.32884514
163	0xbfd8dc7a	-1.6942284
164	0xbf42f93c	-0.7616155
165	0xbfb6d71b	-1.4284395
166	0xbfa6424d	-1.2988983
167	0xbfe246d6	-1.7677867
168	0xbf30a7eb	-0.6900622
169	0xbef02f55	-0.4691111
170	0xbed3c00a	-0.41357452
171	0x3e017fbc	0.12646383
172	0xbf543587	-0.82894176
173	0xbdd791e6	-0.10525875
174	0xbda9d425	-0.082924165
175	0xbf183912	-0.5946208
176	0xbf16ff7d	-0.58983594
177	0xbe6f867b	-0.23391144
178	0xbff62a09	-1.9231578
179	0xbf06d8a9	-0.5267435
180	0xbee64cdc	-0.44980514
181	0x3d0e53db	0.03474794
182	0xbf46e5f1	-0.7769461
183	0xbeb510b8	-0.35364318
184	0xbde82244	-0.11334661
185	0xbf9e1b10	-1.2352009
186	0xbf3fa187	-0.74855846
187	0xbcb06dc6	-0.021536719
188	0xbf787c2b	-0.97064465
189	0xbe322606	-0.17397317
190	0xbe33b91b	-0.17551081
191	0xbeba8a3d	-0.36433592
192	0x3e62f624	0.22164208
193	0xbfa39b74	-1.2781816
194	0xbf1a2e38	-0.60226774
195	0xbf9146b3	-1.1349701
196	0x3e353aea	0.17698255
197	0xc01a7143	-2.413163
198	0xbe89d399	-0.2691925
199	0xbe5ac63e	-0.21364686
200	0xbf27c472	-0.65534127
201	0xbf5b3d41	-0.8564034
202	0xbea5346f	-0.32266566
203	0xbf89f327	-1.0777329
204	0xbf396079	-0.7241283
205	0x3f2ae43c	0.6675451
206	0xbefbf785	-0.4921228
207	0xbea26f63	-0.31725606
208	0xbf890093	-1.07033
209	0xbf31f792	-0.6951839
210	0xbf43a650	-0.7642565
211	0xbfa48b52	-1.2855017
212	0x3f8d643d	1.1046215
213	0xbf292b91	-0.660821
214	0xc0149bd3	-2.3220108
215	0x3e888454	0.26663458
216	0xbf66ddb8	-0.90182066
217	0xbe9ba971	-0.3040271
218	0xbf3267b1	-0.6968947
219	0xbe9e45af	-0.3091254
220	0xbf53a647	-0.82675594
221	0xbfa61565	-1.2975279
222	0xbf0f4073	-0.55957717
223	0xbf4267f8	-0.75939894
224	0xbf3c140b	-0.73468083
225	0xbec9b355	-0.39394632
226	0xbf690840	-0.91028214
227	0xbfd6627a	-1.6748803
228	0xbf3a66ba	-0.72813
229	0xbfe4197d	-1.7820278
230	0xbeb5395c	-0.35395324
231	0xbeb5fc9a	-0.35544282
232	0xbeaef425	-0.34170642
233	0xbf55d1b3	-0.835231
234	0xbfa5d3d6	-1.2955272
235	0xbfa343c7	-1.2755059
236	0xbf5198a8	-0.8187356
237	0x3e394922	0.18094304
238	0xbdcb4967	-0.0992611
239	0xbfe04abe	-1.752281
240	0x40bb5196	5.853709
241	0xbec6a531	-0.38797906
242	0xbf924014	-1.1425805
243	0xbe9a30d2	-0.30115372
244	0xc00f270d	-2.2367585
245	0xbf481aab	-0.7816569
246	0xbf4557a3	-0.7708685
247	0xbee49fdb	-0.4465321
248	0xbf8bff50	-1.093729
249	0xbfddfbe2	-1.7342494
250	0xbf342189	-0.7036367
251	0xbf1fcf9b	-0.62426156
252	0xbf3e16c1	-0.7425347
253	0xbfcbffcd	-1.5937439
254	0xbf519210	-0.818635
255	0xbee800c9	-0.453131
