ckpt/eedi/irt_with_theta.pt (torch, 697891 bytes, 3 tensors)

theta.weight f4 [118921, 1]
0	0x3f8733cf	1.0562686
1	0xbe2ac21b	-0.16675608
2	0x3de15a65	0.110035695
3	0xbe3f82af	-0.18702196
4	0xbb881d1f	-0.004153862
5	0x3b15f5b9	0.0022882058
6	0xbf81a0c2	-1.0127184
7	0xbf2590b1	-0.64673907
8	0x3fa8acd2	1.317774
9	0xbf5fc405	-0.8740848
10	0x3f1c6fe4	0.6110823
11	0xbf9c2809	-1.2199718
12	0xbf3ba6ca	-0.73301375
13	0xbfce1ce7	-1.610257
14	0x408c286c	4.3799343
15	0xbf92ab99	-1.1458617
16	0x39dad99d	0.00041742335
17	0x3f9defdf	1.2338828
18	0x3f4710e7	0.77760166
19	0x3f9cb3c6	1.2242362
20	0xbf383514	-0.7195599
21	0xbf932b84	-1.1497655
22	0x3f30fb80	0.6913376
23	0xbe05d209	-0.13068403
24	0xbf0e91f7	-0.55691475
25	0xbd137ca1	-0.036007527
26	0x385d7eac	5.280848e-05
27	0xbb894402	-0.0041890154
28	0xbfc6634b	-1.5499052
29	0x3b9f8db5	0.0048691877
30	0x3a8e7522	0.0010868649
31	0x3b3f8b7b	0.0029227424
32	0x3f864f2b	1.049291
33	0x3f15db89	0.5853811
34	0x3e8500bf	0.25977132
35	0xbfc6afa2	-1.5522349
36	0x3ea73ec0	0.32665062
37	0x3f0329e0	0.5123577
38	0x3e41e5e9	0.1893536
39	0xbf63ee44	-0.8903544
40	0x3e3437df	0.17599438
41	0xbebc09f4	-0.36726344
42	0x3fca98a5	1.5827833
43	0x3bde30c3	0.006780715
44	0xbf172b42	-0.5905038
45	0x3eb8c336	0.36086434
46	0xbf85a430	-1.0440731
47	0xbe9d4f95	-0.3072478
48	0x408d96cc	4.424658
49	0xbf6e3cdc	-0.93061614
50	0xbcc09880	-0.023510218
51	0xbbd07fa8	-0.006362874
52	0x3b924530	0.004463814
53	0xbeb13e81	-0.34618
54	0x3e893377	0.26797077
55	0x3b879faa	0.0041389065
56	0xbb9ea25f	-0.0048411335
57	0xbec7da48	-0.39033723
58	0x3a7d8f63	0.00096725504
59	0xbf977218	-1.1831694
60	0xbeef43c7	-0.46731398
61	0xbec920d0	-0.39282846
62	0xbf74215d	-0.9536341
63	0xbea9b324	-0.33144486
64	0x3f0e41af	0.55568975
65	0xbebcebd8	-0.36898685
66	0x3dc7358a	0.09727009
67	0x3f0c094c	0.54701686
68	0xbf086667	-0.53281254
69	0xbf5dcc5b	-0.86639947
70	0x3f667837	0.90027183
71	0xbea46bf8	-0.32113624
72	0x400f1370	2.2355614
73	0xbb8c8e1f	-0.004289403
74	0x3afd741b	0.001933697
75	0x3feb5b34	1.8387208
76	0xbdb97a62	-0.09056546
77	0xbb860a31	-0.0040905704
78	0xc01717ca	-2.360827
79	0xbd7c6ca5	-0.06162705
80	0xbf4f1db5	-0.80904704
81	0x3fa7d5df	1.3112143
82	0x3fb025e5	1.3761564
83	0x3bec01b1	0.00720235
84	0xbeed3e9e	-0.46336836
85	0x3ef620e0	0.48071957
86	0x3db69324	0.089147836
87	0x3f514321	0.81743056
88	0x4005501c	2.0830145
89	0xbd646fdc	-0.05577074
90	0xbfdf807d	-1.7461087
91	0xba4fab4a	-0.00079219474
92	0xbfc2c75a	-1.5217087
93	0xbcb1cdf2	-0.021704648
94	0x3ef5c331	0.48000482
95	0x3bc53080	0.0060177445
96	0xbf723cc3	-0.94623965
97	0x3f3bc58c	0.7334831
98	0x3dc1a00e	0.09454356
99	0xbecf1986	-0.4044916
100	0x3faf1cb0	1.368063
101	0x3f352ea3	0.70774287
102	0x3f0cfd62	0.5507413
103	0x3fb84119	1.4394866
104	0xbbae9490	-0.0053277686
105	0x3b1b5061	0.0023699033
106	0x3bd2714c	0.0064221974
107	0xbfdda1aa	-1.7314961
108	0x3f49ecc1	0.7887688
109	0x3ef961be	0.48707384
110	0xbc09bd0a	-0.008406887
111	0x3f27b39b	0.6550843
112	0xbb04a759	-0.0020241349
113	0xbfa553f8	-1.291625
114	0x381eeeda	3.7892583e-05
115	0xbf8310a0	-1.0239449
116	0xbb16d24f	-0.0023013537
117	0xbfe7fa52	-1.8123267
118	0x3f088f3d	0.53343564
119	0x3f80b0ce	1.0053957
120	0xbf23f9b4	-0.6405289
121	0xbf852901	-1.0403138
122	0x3cb1c2f3	0.021699404
123	0x3fcfb755	1.6227823
124	0xbfb6deea	-1.4286778
125	0x3f40cea9	0.7531534
126	0x3fc7e0b1	1.5615445
127	0x3f7de737	0.9918093
128	0x3ea8a195	0.32935777
129	0xbea25ccf	-0.31711432
130	0xbb9288f6	-0.0044718934
131	0x40224680	2.535553
132	0xba80ebf0	-0.000983594
133	0xbf732479	-0.9497753
134	0xbec09ba1	-0.37618735
135	0x3e7a2345	0.24427517
136	0x3f93e792	1.1555045
137	0x3aab3dbc	0.0013064663
138	0xbf4f1f44	-0.8090708
139	0xbeb4c4b3	-0.3530632
140	0x3ed88ff7	0.42297336
141	0xbb8b1d33	-0.004245424
142	0xbf7444c1	-0.9541741
143	0xbd905fd3	-0.07049527
144	0xbaebe1c7	-0.0017996364
145	0xbe45b537	-0.19307409
146	0x3f7fc62f	0.9991178
147	0xbbaa9f10	-0.00520695
148	0xbb16706e	-0.0022955197
149	0x3f913e0d	1.1347061
150	0xbfbf24ad	-1.4933068
151	0xbfec80ba	-1.8476784
152	0x3e89d0f3	0.26917228
153	0x3abc70ae	0.0014376843
154	0xbe7f121e	-0.24909255
155	0x3f910230	1.1328793
156	0xbe9e6fb5	-0.309446
157	0xbbee802b	-0.0072784624
158	0x3eee20aa	0.46509296
159	0x3fc09f83	1.5048679
160	0xbad5b4dc	-0.0016304511
161	0xbeff4c69	-0.49862984
162	0xbb7dac94	-0.00387076
163	0xb92f12f6	-0.00016696364
164	0xbe4a0c34	-0.19731218
165	0xbfac7942	-1.3474505
166	0x3b3a59af	0.0028434803
167	0xbddd8aa1	-0.10817457
168	0x3f6da74c	0.928334
169	0x3f548691	0.8301783
170	0x3bbcab0b	0.0057576946
171	0xbe547d37	-0.2075089
172	0x3ec6eb24	0.38851273
173	0xbf1647c0	-0.5870323
174	0x3f46ffe5	0.77734214
175	0xbff0824f	-1.8789767
176	0x3f8fc5e4	1.1232266
177	0x3b5b6f05	0.003348292
178	0xbeb2eded	-0.34947148
179	0xba83e9e2	-0.0010064209
180	0x3f7ea24d	0.994664
181	0x3e934daf	0.28770205
182	0x3f9393a8	1.1529436
183	0x4048615e	3.1309428
184	0xbf6cdc47	-0.92523617
185	0x3e208b29	0.15678085
186	0xbf11c663	-0.5694334
187	0x3bfd0ba4	0.007722335
188	0xba0d0e81	-0.00053808844
189	0x3b8494d0	0.00404606
190	0xbf0d66ad	-0.55234796
191	0xbed263c5	-0.41091743
192	0xbe283c80	-0.16429329
193	0xbc61a6c2	-0.013772668
194	0xbc2aceb0	-0.010425255
195	0xbb1d0997	-0.0023962015
196	0x3f246736	0.6421999
197	0x3bf5a344	0.0074962694
198	0xc0066aea	-2.1002755
199	0x3ead42ba	0.3383997
200	0xbbb3ec1b	-0.0054907924
201	0xbbb568b8	-0.005536165
202	0x3fe7c1c1	1.8106004
203	0x3c1ea30e	0.00968243
204	0x3fa90ab0	1.3206387
205	0x3fd4e6fb	1.663299
206	0xbb4dce2a	-0.00314034
207	0x40283ce4	2.6287165
208	0xbe9ed0a7	-0.31018564
209	0xbea113c4	-0.31460392
210	0xbf9976b4	-1.198935
211	0x3eb58142	0.35450178
212	0xbf308315	-0.68950015
213	0xbea4ce99	-0.32188872
214	0x3e75a592	0.23988941
215	0xbfe84fda	-1.8149369
216	0xbe2d715c	-0.16937774
217	0xbeb46404	-0.35232556
218	0x3fba33ae	1.4547021
219	0xbedddeb8	-0.43333983
220	0xbf760e31	-0.96115404
221	0xbdadd5a2	-0.08488013
222	0x3eddc2e2	0.43312746
223	0xbde7a022	-0.1130984
224	0x3b8bd537	0.0042673605
225	0xbfd574c3	-1.6676258
226	0x3ba22c55	0.0049491324
227	0xbef10f9f	-0.4708223
228	0x3ba24e20	0.004953161
229	0x3ebc09c1	0.36726192
230	0xbc3ca361	-0.011513562
231	0x3e2f4528	0.17116225
232	0x3f5e331d	0.8679674
233	0x3d322279	0.043489907
234	0xbef21e1e	-0.47288603
235	0x3f4c71e5	0.7986129
236	0xbe3a7655	-0.18209203
237	0xbf786907	-0.9703526
238	0xbe71caa2	-0.23612455
239	0xbef02c5e	-0.4690885
240	0x3f180ca6	0.593943
241	0x3f9461d3	1.1592354
242	0xbeb85c36	-0.3600785
243	0xbe85279f	-0.2600679
244	0xbe474480	-0.19459724
245	0x3ee3c3de	0.44485372
246	0xbf2fefb1	-0.68725115
247	0x3b3176e4	0.002707892
248	0x3d1d6f27	0.03843608
249	0xbde31ee8	-0.11089879
250	0x3f43af79	0.76439625
251	0x3f6dd741	0.92906576
252	0xbb8d4b0a	-0.004311924
253	0xba620e7a	-0.0008623373
254	0xbf531b79	-0.82463795
255	0x3b34cb41	0.002758697

alpha.weight f4 [27613, 1]
0	0xbe404bc5	-0.18778904
1	0x3f177ab7	0.59171623
2	0x3e8dd218	0.2769935
3	0x3fe9b6b2	1.8258879
4	0x3eab0a2e	0.33406204
5	0x3f17295a	0.5904747
6	0x3e8d714e	0.27625507
7	0x3ef1d3ac	0.47231805
8	0x3ef306ea	0.47466213
9	0xbeedfe3c	-0.46483028
10	0x3ee7915e	0.45228094
11	0x3ec9378d	0.39300194
12	0xbf252f6b	-0.6452548
13	0x3f0404d6	0.5156988
14	0x3d0d832e	0.03454893
15	0x3f86889a	1.0510437
16	0xbe5c9997	-0.21542965
17	0xbf0ba226	-0.54544294
18	0xbf1a3fb1	-0.60253435
19	0xbefda70a	-0.49541503
20	0x3f3c9183	0.73659533
21	0xbe996668	-0.29960942
22	0x3f170984	0.58998895
23	0x3f40cbfd	0.7531126
24	0x3da703a1	0.08154989
25	0x3efaa15c	0.48951232
26	0xbe9ecb81	-0.31014636
27	0xbd68e146	-0.056855462
28	0x3f18f7df	0.5975322
29	0x3e8b7991	0.27241185
30	0x3f1890cd	0.5959595
31	0x3f88a66a	1.0675786
32	0xbe95c796	-0.29253834
33	0x3f8ee126	1.116246
34	0x3e0649b9	0.1311406
35	0x3f45d126	0.7727226
36	0x3e312630	0.17299724
37	0x3f35a44b	0.70953816
38	0x3e22ced7	0.15899216
39	0x3f655085	0.8957599
40	0x3f2a5a67	0.66544193
41	0xbe8fb6e4	-0.28069222
42	0x3e34e841	0.17666723
43	0xbed8a144	-0.42310536
44	0xbf274bf7	-0.6535029
45	0xbd66a908	-0.056313545
46	0x3faa4ff0	1.3305645
47	0xbebd6846	-0.36993617
48	0xbebb9301	-0.36635593
49	0x3ee1f04e	0.4412865
50	0x3f804f4d	1.0024201
51	0xbf0bca17	-0.5460524
52	0xbefe4c4b	-0.49667582
53	0x3eb63b61	0.35592178
54	0x3f376401	0.7163697
55	0x3f5edc27	0.87054676
56	0xbef33849	-0.4750388
57	0xbf55fe24	-0.8359091
58	0x3f529393	0.8225643
59	0xbecf2f4c	-0.40465772
60	0x3e827d01	0.25485995
61	0x3e4d9624	0.20076805
62	0xbf6761d2	-0.90383637
63	0x3cde165f	0.027110277
64	0x3d3c6cf1	0.046002332
65	0x3ec52220	0.38502598
66	0x3eb158f8	0.3463819
67	0xbe8c4297	-0.27394554
68	0xbe93e4e9	-0.28885582
69	0xbd8eaa77	-0.06966107
70	0xbf29cdb0	-0.6632948
71	0xbe8d14ff	-0.2755508
72	0x3c8b3427	0.016992642
73	0xbf3c52ec	-0.7356403
74	0xbf0ecb68	-0.55779123
75	0xbec0b7de	-0.3764028
76	0xbed51dca	-0.4162429
77	0x3ee05a9f	0.43819138
78	0x3edfc768	0.43706822
79	0xbf46887c	-0.7755201
80	0xbf7c4414	-0.9854138
81	0xbf393c24	-0.7235739
82	0xbf31c84a	-0.6944624
83	0xbf6d52b5	-0.92704326
84	0xbda31fd0	-0.07965052
85	0xbe84adad	-0.25913754
86	0xbe298bf3	-0.16557293
87	0xbdf31a9a	-0.11870308
88	0xbdee58bb	-0.11638018
89	0x3ed41c93	0.4142805
90	0xbf08814d	-0.533223
91	0xbec9bb0a	-0.39400512
92	0x3de3b966	0.11119346
93	0x3f16b3b0	0.5886793
94	0xbe32dd33	-0.17467193
95	0x3f19c8a2	0.60071766
96	0xbf5d344d	-0.8640793
97	0xbe412852	-0.18863037
98	0xbfa6715e	-1.3003347
99	0xbed345c1	-0.41264156
100	0x3e03daf3	0.12876491
101	0xbf49aa47	-0.7877545
102	0x3fd14dad	1.635183
103	0xbf4eb258	-0.8074088
104	0x3f24eaf4	0.6442101
105	0xbe88306c	-0.26599443
106	0x3f40cca0	0.7531223
107	0x3f8988dc	1.0744891
108	0x3e7aaa4a	0.24479023
109	0xbf802506	-1.0011299
110	0xbef4ffa3	-0.47851285
111	0xbd2eddd3	-0.042692017
112	0x3d856e48	0.06515175
113	0xbde90dfe	-0.11379622
114	0x3ec79855	0.38983408
115	0x3f1e3673	0.6180183
116	0xbf012a19	-0.5045486
117	0x3ef9ab60	0.4876356
118	0xbc9ccc30	-0.019140333
119	0xbeb28315	-0.34865633
120	0xbeb29198	-0.34876704
121	0xbf7eae62	-0.9948484
122	0x3e5c874e	0.2153599
123	0x3e831fed	0.25610295
124	0xbebb2fdb	-0.36559948
125	0xbedb1fc8	-0.42797685
126	0xbfa356d3	-1.2760872
127	0xbf2357ca	-0.6380583
128	0xbf7eb1dc	-0.9949014
129	0x3e9cc9b5	0.3062264
130	0x3e9dc8cc	0.30817258
131	0xbe1ba39e	-0.15199134
132	0xbf09308d	-0.5358971
133	0x3eff5fff	0.49877927
134	0x3ef6c87f	0.4819984
135	0xbebf0674	-0.3730961
136	0xbf2dad4c	-0.67842555
137	0xbd5a81b0	-0.053346336
138	0xbe9871d2	-0.29774338
139	0x3e5457d2	0.20736626
140	0xbf2d05a4	-0.6758673
141	0x3f83089d	1.0237004
142	0xbef32380	-0.47488022
143	0x3efccd75	0.493755
144	0xbf0b4384	-0.54399896
145	0xbdd801d3	-0.10547223
146	0xbdef4e3d	-0.11684845
147	0x3f0e778b	0.5565116
148	0x3fb90a32	1.4456236
149	0xbefb0c38	-0.4903276
150	0x3f2cae13	0.67453116
151	0x3f48c0ad	0.78419
152	0x3f4049ba	0.751125
153	0x3eae67e5	0.3406364
154	0x3f06b3ad	0.52617913
155	0x3ee524e7	0.44754717
156	0x3f245223	0.6418783
157	0x3f63e92d	0.89027673
158	0xbf4057cb	-0.7513396
159	0x3f33771d	0.7010363
160	0x3f115aab	0.56778973
161	0xbeebb1a2	-0.4603396
162	0x3f5d2f7a	0.8640057
163	0x3dad2a87	0.08455377
164	0xbefb22bd	-0.4904994
165	0xbeeb37f0	-0.45941114
166	0xbee27e9a	-0.44237214
167	0x3f12bb5a	0.57317126
168	0xbfa22f1f	-1.267063
169	0xbe25a661	-0.1617675
170	0x3f4254c4	0.7591059
171	0x3f347af9	0.7050014
172	0xbf1e8bca	-0.6193205
173	0x3e8e742b	0.27823004
174	0x3f07c1ae	0.53029907
175	0x3f13af63	0.57689494
176	0x3eab984e	0.33514637
177	0x3e8b1d11	0.27170613
178	0xbf15a17b	-0.58449525
179	0x3e911145	0.28333488
180	0x3f91964f	1.1373996
181	0xbf10d617	-0.56576675
182	0x3f051554	0.5198567
183	0x3db84e26	0.08999281
184	0x3f29f529	0.6638971
185	0xbefe9978	-0.49726462
186	0x3f14e8b2	0.58167565
187	0xbf24668d	-0.6421898
188	0x3e377d95	0.17919
189	0x3f101f43	0.562977
190	0x3f4e1d0d	0.8051308
191	0x3ecd6013	0.4011236
192	0x3f153eb7	0.5829882
193	0xbf350970	-0.70717525
194	0x3f3840b0	0.71973705
195	0x3f58f897	0.8475432
196	0xbf8a945e	-1.0826528
197	0x3c9ba873	0.019001221
198	0x3ed413ca	0.41421348
199	0x3f664312	0.8994609
200	0xbe5b1a55	-0.21396764
201	0xbeb776db	-0.35832867
202	0xbf109780	-0.5648117
203	0x3e35d65c	0.17757553
204	0xbf9d8791	-1.2306997
205	0xbc54fc67	-0.0129996305
206	0xbef07793	-0.46966228
207	0x3ea42a96	0.3206374
208	0xbf0f24d8	-0.55915594
209	0x3d113701	0.035452846
210	0xbf0efa45	-0.5585063
211	0x3f5e4183	0.8681871
212	0xbe91b08b	-0.28455004
213	0xbe34f01f	-0.17669724
214	0x3e08d97b	0.13364212
215	0xbf2330de	-0.6374644
216	0x3d35dbea	0.04439918
217	0xbe1c2fb4	-0.15252572
218	0x3e6ff97e	0.23435017
219	0x3e6ebc09	0.23313917
220	0xbf1e79ab	-0.619044
221	0x3f015172	0.505149
222	0x3f57a32e	0.8423337
223	0x3e94db68	0.29073644
224	0x3f0c4d46	0.5480541
225	0x3ee81b16	0.45333165
226	0x3f5681a2	0.83791554
227	0x3f8b3c27	1.0877732
228	0xbe1360f7	-0.14392458
229	0xbf0ff06d	-0.56226236
230	0x3eec8948	0.46198487
231	0x3fa57c7b	1.2928613
232	0x3ec473f7	0.38369724
233	0x3f2ee964	0.68324876
234	0x3e8efd7a	0.27927762
235	0x3f4f028f	0.8086328
236	0xbf615da7	-0.8803353
237	0x3f079084	0.5295489
238	0x3f010db6	0.50411546
239	0x3f95c4d5	1.1700693
240	0xbea6c7a7	-0.32574198
241	0x3f75622d	0.9585293
242	0x3f964f55	1.174296
243	0x3f4bd402	0.79620373
244	0xbe96bfad	-0.29443112
245	0x3f57c8a9	0.8429056
246	0xbe9c54c0	-0.3053341
247	0xbe967647	-0.29387113
248	0xbead2f51	-0.33825162
249	0xbf733684	-0.9500506
250	0x3f04d93c	0.51893973
251	0xbf13c38c	-0.57720256
252	0x3f5bd601	0.8587342
253	0x3e0a8275	0.13526328
254	0x3f071302	0.5276338
255	0x3ecd593d	0.40107146

beta.weight f4 [27613, 1]
0	0x3fad3479	1.3531638
1	0xbfea6707	-1.8312691
2	0xbefa190a	-0.48847228
3	0xc028533e	-2.6300807
4	0x3ea441f3	0.32081565
5	0xbed3c618	-0.4136207
6	0xbf5a5dc0	-0.852993
7	0xbfb162b2	-1.3858244
8	0xbfa68f5b	-1.3012499
9	0xbe8ab9d3	-0.27094898
10	0x3c3dec68	0.011592008
11	0xbf9b333f	-1.2125014
12	0x3ef9d990	0.487988
13	0xbfd5fbe8	-1.6717501
14	0x3f3c6e89	0.73606163
15	0xbf9164bd	-1.1358868
16	0x4040ab32	3.010449
17	0x3fb1c0e5	1.3886992
18	0x3ed973be	0.42471117
19	0x3fcc831f	1.5977515
20	0x3f091049	0.53540474
21	0x40310f28	2.76655
22	0xbf99b9d3	-1.2009834
23	0xbfa59f19	-1.2939178
24	0xbead95eb	-0.3390344
25	0x3ec01030	0.3751235
26	0xbf3e8983	-0.74428576
27	0x3fd29005	1.6450201
28	0xbfd13dcc	-1.6346984
29	0x3d9bed3d	0.07613609
30	0xbf298e51	-0.6623278
31	0xc00efa9d	-2.2340462
32	0xbf2bcbe4	-0.6710799
33	0xbfc3d467	-1.5299195
34	0xbfeac590	-1.8341541
35	0xbf35069a	-0.707132
36	0x3f12ace1	0.5729504
37	0x3fb11ad7	1.3836316
38	0x3e5d6900	0.21622086
39	0xbfbee5c4	-1.4913869
40	0xbf0694ed	-0.5257099
41	0x3eed34df	0.463294
42	0xbdd1a216	-0.102359936
43	0xbe043656	-0.12911353
44	0x3f39e977	0.72621864
45	0xbe1f6fd5	-0.15570004
46	0xbfa62dce	-1.2982728
47	0x40011345	2.016801
48	0x3eefadf7	0.46812412
49	0x3dfd7ed6	0.12377708
50	0xbfcb32d3	-1.5874885
51	0x4007a02f	2.1191518
52	0x3d9b9746	0.075972125
53	0xbf51f776	-0.8201822
54	0xbf2187ba	-0.6309773
55	0xbf8e70aa	-1.1128132
56	0x3f136581	0.5757676
57	0x3fbc0bd3	1.4691108
58	0xbfe6c7af	-1.8029689
59	0xbf4f6c6b	-0.8102481
60	0x3e436437	0.19081198
61	0xbee6b8c2	-0.45062834
62	0x3f841cb7	1.0321263
63	0xbf0764bc	-0.52888083
64	0xbeb0b87f	-0.3451576
65	0xbf61a286	-0.88138616
66	0x3d655f6c	0.055999205
67	0xbf85591c	-1.0417819
68	0xbaeaeff9	-0.0017924301
69	0x3eb9bbb4	0.3627602
70	0xbf2a158a	-0.66439116
71	0x3fa1d0a4	1.2641797
72	0xbed396ad	-0.41325894
73	0x3f5f7ba4	0.87298036
74	0x3fa21308	1.2662058
75	0xbdbc4fd3	-0.09194913
76	0x40159c96	2.3376822
77	0xbcf6591f	-0.030071793
78	0x3f407d7b	0.7519147
79	0x3e7f5368	0.2493416
80	0x40233b44	2.5504923
81	0x3f967a56	1.1756084
82	0x3f1b1f94	0.6059506
83	0x4000df96	2.0136466
84	0xbf2c51bf	-0.67312235
85	0x3e24b691	0.16085269
86	0x3eb9b50d	0.36270943
87	0xbcbb94b2	-0.022898052
88	0x3df902e7	0.12158757
89	0xbfb183c5	-1.3868338
90	0x3f70bc80	0.9403763
91	0x3e1d599c	0.15366215
92	0xbea52062	-0.3225127
93	0xbf159f81	-0.5844651
94	0x3f927960	1.1443291
95	0xbf1637fd	-0.5867918
96	0x3e98b421	0.29824927
97	0x3f4e597e	0.80605304
98	0x3f90780f	1.1286639
99	0x3ea33534	0.31876528
100	0xbf8d43ac	-1.1036277
101	0x3ff886e9	1.9416171
102	0xbfe70431	-1.8048154
103	0x3f31ca97	0.6944975
104	0xbee6177f	-0.449398
105	0x3c4172b7	0.011807135
106	0xbfc0cae7	-1.5061921
107	0xbfc3a6d0	-1.5285282
108	0xbf1df6b4	-0.61704564
109	0x3fb45148	1.4087305
110	0x3f541d7f	0.8285751
111	0xbf2374b8	-0.63849974
112	0x3e845772	0.25847965
113	0x3f21ed1d	0.6325243
114	0xbf582a54	-0.8443959
115	0x3cb3db10	0.021955043
116	0x3fac6493	1.3468193
117	0xbf0bdc0e	-0.5463265
118	0x3f42d689	0.76108605
119	0x3f692efa	0.91087306
120	0x3e194664	0.14968258
121	0x402261d1	2.5372202
122	0x3e644e9a	0.22295609
123	0xbfbe748b	-1.4879316
124	0x3f0c0f78	0.54711103
125	0x3fcca87b	1.5988916
126	0x3f4cb45d	0.7996271
127	0x3f3e1b7e	0.742607
128	0x40097ab4	2.1481142
129	0xbd998f9d	-0.07498095
130	0xbe29d8df	-0.16586636
131	0x3c80e85c	0.015735798
132	0x3ed2f8ba	0.41205388
133	0xbf36cbfc	-0.71405005
134	0xbf07156b	-0.52767056
135	0x3e9bb499	0.30411223
136	0x3fa48899	1.2854186
137	0x3f111228	0.5666833
138	0x3cf4e5e1	0.029894771
139	0x3ee36b00	0.44417572
140	0x3f8c1648	1.09443
141	0x3f49c691	0.78818613
142	0xbdf250fc	-0.11831853
143	0xbf69c407	-0.9131474
144	0x3f388390	0.7207575
145	0x4030e8ca	2.7642083
146	0xbdabd068	-0.0838936
147	0xbf1e8667	-0.6192383
148	0xbfe23ce5	-1.7674834
149	0x4006db85	2.1071484
150	0xbfe30516	-1.7735927
151	0xbfa87da3	-1.3163341
152	0xbf248a05	-0.642731
153	0xbfd96c3c	-1.6986156
154	0xc06bca37	-3.6842172
155	0xbf2aa55e	-0.6665858
156	0xbf59eb47	-0.8512463
157	0xbf541494	-0.828439
158	0x4012dd76	2.294767
159	0xbf02fb50	-0.5116472
160	0xbfd25be4	-1.6434293
161	0xbe61405a	-0.21997204
162	0xbf9931ee	-1.1968362
163	0xbf942260	-1.157299
164	0x3fd06be3	1.6282924
165	0x402d974e	2.71236
166	0xbd32c81d	-0.043647874
167	0xbfb6bcee	-1.4276407
168	0x402d76ff	2.710388
169	0x3f94bc8d	1.1620041
170	0xbd149e6b	-0.03628389
171	0xbfc1f740	-1.515358
172	0x3fe23d6f	1.7674998
173	0x3ddf8321	0.10913683
174	0xbf9ce004	-1.2255864
175	0xbfd12ca8	-1.6341753
176	0x3fcde967	1.6086854
177	0x3f3e4125	0.7431815
178	0x3f9c4555	1.2208658
179	0x3d82b80d	0.06382761
180	0xbffe4363	-1.9864315
181	0x3f1b7ab9	0.60734135
182	0x3f07b79c	0.5301454
183	0x3f52ddbc	0.8236959
184	0xbfae1a70	-1.3601818
185	0x3f62c4f1	0.8858176
186	0xbf60f665	-0.8787597
187	0x400051a7	2.0049837
188	0xbfcbf33f	-1.5933608
189	0xbf6e0f58	-0.9299216
190	0xbfd5f501	-1.6715394
191	0xbf95e7df	-1.1711386
192	0x3e07476a	0.13210836
193	0x3d69b2e0	0.057055354
194	0xbfb316b4	-1.3991303
195	0xbf61e290	-0.8823633
196	0x3fb99c46	1.4500816
197	0x3b3b58c6	0.0028586849
198	0xbe2de40a	-0.16981521
199	0xc00521ea	-2.080195
200	0x3f145e15	0.5795606
201	0x3f6588cb	0.89661855
202	0x3fc46d48	1.534585
203	0xbfa9287b	-1.3215479
204	0x3fa23888	1.2673502
205	0xbf12c6b2	-0.57334435
206	0x3fe3f987	1.7810525
207	0xbfa8ec16	-1.3197048
208	0x3faa0116	1.3281581
209	0xbdfccabf	-0.12343358
210	0x3f49db01	0.788498
211	0xc0021535	-2.0325444
212	0x3f1d6631	0.61484057
213	0xbf891c6a	-1.0711796
214	0x3f82f289	1.0230266
215	0x3f73fec6	0.9531063
216	0xbf2a0006	-0.66406286
217	0xbdd7ccca	-0.10537107
218	0xbfa997b8	-1.3249426
219	0x3e0fe51f	0.14052247
220	0xbebce648	-0.3689444
221	0xbfaaa95a	-1.3332932
222	0x3f28c9d9	0.65932995
223	0xbba8cb81	-0.0051512127
224	0x3ec66a35	0.38752905
225	0xbf172dac	-0.59054065
226	0x3f4d749d	0.8025606
227	0xbfa80534	-1.3126588
228	0x403fbfaa	2.9960732
229	0x3facb397	1.3492306
230	0x3dd02827	0.101639085
231	0xbfedb6e2	-1.8571436
232	0xc02e0830	-2.7192497
233	0xbf381c12	-0.7191783
234	0x3f442c73	0.76630324
235	0xbf24709b	-0.6423432
236	0x3fecc89c	1.8498721
237	0xc01369e7	-2.3033388
238	0xbf3eda96	-0.74552286
239	0x3f9a3eba	1.2050393
240	0x3f35d313	0.710252
241	0xbfc7eb3f	-1.5618666
242	0xbfedbec8	-1.8573847
243	0xbfea5f8e	-1.8310411
244	0x3ff1866c	1.8869147
245	0xbfc8a259	-1.5674545
246	0x3ff65020	1.9243202
247	0x3f5480a3	0.83008784
248	0x3fa68ba2	1.3011363
249	0x3f27a6c1	0.6548882
250	0xbf07791c	-0.52919173
251	0x3f95f574	1.1715531
252	0xbfd8cf05	-1.6938177
253	0x3ed0cbed	0.40780583
254	0xbf0ff37c	-0.562309
255	0x3df3d93e	0.1190667
