ckpt/eedi/irt_MFI_ip11.pt (torch, 286913 bytes, 12 tensors)

utn.0.weight f4 [256, 1]
00000000: 1b37 d63c 8f9e 893e 9c68 603f a6c0 163f
00000010: 8f4f 92be 9eb9 ccbd 1cde f2bd 4012 71be
00000020: 8acf 85bd 8f03 82bd a292 453e 5019 2d3e
00000030: 5b6f 03be 6f14 8b3e d26a 5ebe 34ff 07be
00000040: 1d8d 5bbe 63ab f9bd fa4a adbe 8195 6abf
00000050: d851 eabe 228c 7a3e 222b ccbe 7f29 cf3b
00000060: e25e 42c0 5bd2 133e 330c e9be 6029 2bbf
00000070: cbc6 c93e e51d 5bbd e789 b53e fc1a 39bc
00000080: 1d03 8f3e 9fcc 97bd ea1a 1e3c b134 66bf
00000090: a1c5 a9be fd4b 3ebf 87de af3f 436d 2cbe
000000a0: cca7 85be 6e2b febe 4483 91be b8f6 0b3e
000000b0: 0c9a 8d3e 68d2 24be 535b 00be 4db9 083f
000000c0: 5852 90be 5f78 fb3f ab74 c3be 46b0 943c
000000d0: 4ade 59bd 2bfa 53bd d4b3 84bf bb83 85be
000000e0: 9bc6 a53c 9426 043e 442a 08be cae9 0cbf
000000f0: 4842 31bf 4880 9abe cc2f 81be 1f63 62bd
00000100: 95bb 403d f675 163e 4755 653d 52f9 f73d
00000110: f7e1 9e3d c364 e1be dc2a 0ebf 3088 c6bc
00000120: c7b9 e2be 84b3 79bf 5693 cdbe 8742 b8bd
00000130: e8b2 80be c622 73bf 53ac 16bf 824c fbbe
00000140: f01b 843e 743b 68bd 2bea 773d 52bb 04bf
00000150: de13 60be ae3b 103f c0f6 443e d495 52be
00000160: 9dea 4a3e b7bd bbbf 7522 fa3e f8bc 6d3d
00000170: c4ac 6dbe 64ae cabf 51ca 73bd b2c7 1a3f
00000180: 57fc 533d 6be9 a9bf e079 acbe 24e7 7bc0
00000190: 5f26 503e 2d2b dcbf 1834 f7bf eec5 02c0
000001a0: 3caa 173f 70e9 01be e954 823f bc3e 40be
000001b0: 0397 533f f46c d8bc c678 e63e d6e8 90bd
000001c0: a185 abbe 8546 9340 8c1a abbf 3c81 a7bd
000001d0: 7c50 f2be f1a3 f73e 8b12 9cbc 3c64 dfbe
000001e0: 42c3 d03e 48d3 18bf 9d4b 87bd 137a cdbe
000001f0: a276 5eba cfab 0f3e 6098 95be 98c6 dbbd
00000200: 3ec1 193d a4ed 28c0 1bc4 dfbd d4b8 81bf
00000210: 5aca d2be 55a0 a13d 0d18 8c3e b40f 27bf
00000220: 10b4 61be 7873 7bc0 fd86 edbd f7d0 9bbe
00000230: 0a4d 293d dea1 6ebf cdef 483e e8b9 333e
00000240: 17dd 4f3c 6bba 5cbe 7189 87be 83aa 913f
00000250: 8faa 813e dda1 9a3d 7c71 6b3e bc0e 773e
00000260: 7976 3abf 0a52 8abf 6665 c03d 4e52 ddbe
00000270: 3858 9b3e 186c a9bd 4350 103e c61e c0be
00000280: e5ff 27bf 17b5 c43f 611e 36be 903a 6ac0
00000290: 881c 30be 2f70 84be 34b7 45be 1955 033e
000002a0: 2b19 d63c 76b6 c6be 982c 85bf d4ec 5dc0
000002b0: 18d4 4dbe 5683 d2be cff4 2b3f a78e 8ebd
000002c0: edaa 533e 671e 033e d4d1 a33e 33f6 93be
000002d0: 1969 f4be d96d 0ebe cff4 a5bc 2787 a53e
000002e0: df5a 53c0 c996 eb3d eb05 c0bf 3f7b 46be
000002f0: e701 1e40 767c b5be d11f e6be 410d 04bf
00000300: 9c78 d3be b406 bd3e 7244 62bf 3c8b 31bf
00000310: 84e1 053c 96cf 153e 6d87 88bd b80c a4bc
00000320: 5765 a7bd 4ce4 b43c 90eb 263c 68b2 debe
00000330: ca19 92bb a457 a9be 7ef6 edbe 6e65 733c
00000340: 3146 883e 585a 113f 354f a8bf 2bd6 44bf
00000350: a6c2 d2bf d723 9bbe 3d50 73bf d306 6fbe
00000360: ceea 3dc0 e211 df3d 69c0 da3e edc7 a7bd
00000370: 8aec c2bd 81b3 08bf acab c7be 853e 21bd
00000380: 8fbf 0dbf 0d81 0cbf 5cdb c43e a75f a43c
00000390: 9ee2 edbe 24d8 40be c05a 7cbe b8ba bbbd
000003a0: d767 a3be 1a10 26c0 02de 3dbf 0646 363e
000003b0: 1c07 3fbf 1f0e 8fbf 5f81 9f3d c5c9 523e
000003c0: e45d 2f3f 1b6e 3c40 5eca a63e f8a4 00be
000003d0: c402 a4c0 715e 22bd 649d 19be 380b 013e
000003e0: 97b9 dd3d 8ed6 1abf ee10 cabf 0e45 4abe
000003f0: 18cc f7bf 9ea0 1d3f 5f5f 2a3f 5256 fabe
0.026149323 0.26878783 0.8765962 0.5888771 -0.28576323 -0.09996341 -0.1185877 -0.23542118
-0.065337256 -0.06348335 0.19294217 0.16904187 -0.12835447 0.27164027 -0.21720436 -0.13280946
-0.21440549 -0.121908925 -0.33846265 -0.91634375 -0.45765567 0.24467519 -0.39876658 0.0063220854
-3.0370412 0.14435713 -0.4551712 -0.6686001 0.3940948 -0.053495307 0.35456774 -0.0112979375
0.27932063 -0.07412075 0.0096499715 -0.8992415 -0.3315859 -0.743347 1.3739785 -0.16838555
-0.2610458 -0.4964251 -0.2842046 0.13668334 0.2765659 -0.16095889 -0.12534837 0.53407747
-0.28187823 1.9646109 -0.38174948 0.01815046 -0.053190507 -0.05175225 -1.0367379 -0.26077065
0.020236304 0.12905341 -0.13297373 -0.55044234 -0.6924176 -0.30175996 -0.2523178 -0.05527031
0.047053892 0.14693436 0.05598953 0.12108101 0.07757943 -0.44022188 -0.5553415 -0.024234861
-0.44282362 -0.97539544 -0.4015147 -0.08997064 -0.25136495 -0.94974935 -0.58856696 -0.49081808
0.25802565 -0.056697324 0.060526054 -0.5184833 -0.21882579 0.56341064 0.19234753 -0.20564967
0.1981606 -1.4667271 0.48854414 0.058041543 -0.23210436 -1.583447 -0.059519116 0.6046096
0.051754322 -1.3274359 -0.33686733 -3.9359827 0.20327137 -1.7200676 -1.9312773 -2.0433307
0.5924413 -0.12686706 1.0182163 -0.18773931 0.826523 -0.02641914 0.45014018 -0.0707566
-0.33500388 4.6023583 -1.3367476 -0.081789464 -0.4732703 0.48367265 -0.01905181 -0.4363116
0.4077397 -0.5969739 -0.06606219 -0.40132198 -0.00084863056 0.14030384 -0.29217815 -0.10731238
0.037537806 -2.6395044 -0.10926076 -1.013453 -0.41170007 0.07891909 0.273621 -0.65258336
-0.22041345 -3.9289227 -0.115980126 -0.30432865 0.041333236 -0.9321574 0.19622727 0.17551386
0.012686989 -0.21555488 -0.26472047 1.1380161 0.25325438 0.07550404 0.2299251 0.24126714
-0.72837025 -1.0806286 0.0939434 -0.43226856 0.30340743 -0.0827257 0.14093117 -0.37523478
-0.6562484 1.5367764 -0.17785026 -3.6598244 -0.17198384 -0.2586684 -0.19308168 0.12825431
0.026135048 -0.38811082 -1.0404234 -3.4675798 -0.20100439 -0.41115826 0.67170423 -0.069608025
0.20670672 0.12804566 0.31996024 -0.28898773 -0.47736433 -0.13909091 -0.020258335 0.32329676
-3.3024213 0.11503369 -1.5001806 -0.19382952 2.468866 -0.3544652 -0.4494615 -0.51582724
-0.41302955 0.36919177 -0.8838569 -0.6935308 0.008171443 0.14629969 -0.066664554 -0.020025596
-0.08173626 0.022081517 0.010187998 -0.43495488 -0.0044586407 -0.33074677 -0.4647712 0.014855726
0.26616052 0.5677848 -1.3149172 -0.76889294 -1.6465652 -0.3030078 -0.9504431 -0.23342447
-2.9674563 0.10892083 0.42724922 -0.0819243 -0.095177725 -0.533989 -0.38998163 -0.039366264
-0.5537042 -0.54884416 0.38448608 0.020065142 -0.46461958 -0.18832451 -0.24643993 -0.09166473
-0.3191516 -2.5947328 -0.7416688 0.1780015 -0.74620223 -1.1176184 0.077883475 0.20584781
0.6850264 2.9442203 0.3257627 -0.1256293 -5.1253376 -0.039640848 -0.15001446 0.12601936
0.10826414 -0.60483634 -1.5786417 -0.19752905 -1.935916 0.6157321 0.66551775 -0.48893982

utn.0.bias f4 [256]
00000000: 8b9b 72bf 25d7 f63e 0eaa fabe 3542 23bf
00000010: d6d1 2bbf bcec 093f 55c7 0a3f 164c 283f
00000020: 8823 8a3e 2bc0 d9be de82 68be dc1c a83e
00000030: d78a 4a3f 0509 833e 149f 1dbf 8ffa f3be
00000040: ca4c 8bbf 60d2 e33d dbdd 27bf b46f 6ebf
00000050: 6a15 383f 8764 2abf 2e34 5abe 4782 573e
00000060: 5345 f23e d371 22bf 45b1 71bf bb62 2a3f
00000070: 035b d13b cd32 4c3f 5823 9cbe 39b9 a53e
00000080: 701d 40be a68b 06be 53e1 30bf 6ef6 323e
00000090: c431 343e fca3 68be 2314 c0be 2266 48bf
000000a0: 0af0 173f 962b 59bf bc9c 8f3e bdcb 91be
000000b0: 41d4 08bf 1079 bb3d 770f 0cbf 8df0 363e
000000c0: 2472 e63d 5a85 54bf c546 403d a83c c93e
000000d0: fa33 d43e 66a6 ffbd 0ad9 42bf ada6 b6be
000000e0: e037 7f3e 67b7 a2be c36a c03e fe15 f23e
000000f0: 3a19 1cbf 6237 08be 8efc 873e 892a 3abc
00000100: 8461 013e 0842 293e a9d4 3fbf 0049 d03d
00000110: b81b 143f 04fc 3a3f 0d19 c33e 8c20 373e
00000120: 86ee a33e 3fd3 0abf a60a 75bf 00cf 55bf
00000130: 18dd 693f 8a31 073f b631 4bbf 104f 553e
00000140: e899 463f 7972 593f 7609 463f 3ffc 263f
00000150: efb3 b5be 3f61 bfbe fe19 5c3f e2f7 af3e
00000160: fdf2 0ebf cd7e 343f 0b3a 833e 5b96 083f
00000170: bd8d 36bf e516 013e d56e adbe 2f6c 223f
00000180: 981b 0ebe 1347 4a3e d005 4b3d f294 883f
00000190: 9d35 bebe 7102 873e 055e a7be 44d0 693e
000001a0: e017 65bf f97c 89bf e313 47bf c69d 2a3f
000001b0: 4cd7 b83e 512d 633f 44ff 2a3f d41c 80bf
000001c0: 2006 4abf 31ba c2bf b9ee 13bf 96aa 163f
000001d0: 6d62 46bf 8d56 e3be 5617 6ebf 40fe 27bf
000001e0: b887 453f d4c2 043f 82e0 403f 5c26 223f
000001f0: a4ea 613f c76b b4be a02f 963e c88d 643f
00000200: 33c7 b73e 09f7 3f3f fea7 d63e 178b c43e
00000210: c67d e8be 7e66 f63e e13f 0bbd 2c58 b7be
00000220: a683 33bf f9c1 683f eadc 3bbf 36b8 1d3f
00000230: 984a 2f3f 4051 63be 8cb3 15bf 5655 443f
00000240: 9f12 2a3f 078e d3bc d076 0fbf 2dd1 b73e
00000250: 4771 d23e 5387 5dbf b49f 7b3f 97f8 493f
00000260: d8f5 f2be afd8 a13e 9ba9 08bf 5497 2abe
00000270: dbab 343f 8a98 93bd b24e 39bf b6d6 dfbe
00000280: 343b d9be 9374 e1be 3ad7 01bd ce48 813f
00000290: 1bf4 1e3d af17 2bbf 7506 0cbd 49ad f13e
000002a0: 5726 d13e 037a 6cbf 5759 87be a48f 193f
000002b0: 02ee cbbe 9363 9c3e 69d5 2dbf 2a61 d53e
000002c0: 2ca8 633f c537 823d af80 3fbf 9aec e2be
000002d0: 510d ab3d 1bb6 5ebf 3896 043f 7ed3 5dbf
000002e0: 8756 e53e f28d 84bf 9974 fbbd ab10 253f
000002f0: 7e60 88bf 38b1 363f 304e 01bf 7b90 203e
00000300: bbeb 8dbd 0ce3 5cbf dd5b 223f f33a eb3e
00000310: 1282 813f 2f31 c23e a83f 48bf 8bb2 5a3f
00000320: 2620 1c3d aaab b53e 42f8 62bf 6fb6 cebe
00000330: e1f5 70bf 70bc c4be 5748 f13d 70a2 60bf
00000340: 4cf0 ad3e 7537 8c3e 8e72 dc3d cd32 47bf
00000350: 1d3d 22bf 7b45 e2be 63bc 8c3e f8af 5d3f
00000360: f2ce 3f3f c356 adbd 752c 1e3e 7610 77bf
00000370: 9cb6 72bf 02a4 7d3e 74c9 27bf f9e6 f63e
00000380: a96b 4cbf aa22 16bf d69d 45bf 9add d23e
00000390: fb5b 53be 54a5 4b3f 9193 053f f30a f13e
000003a0: 9d23 bebb e777 613e b1d0 e8be 7dbb 1a3e
000003b0: 2dc0 763e 212e 2bbf 3e96 3d3f 900a c0bd
000003c0: 1c4c 42bf 0fb9 87bf 24cc 363f db1d 533f
000003d0: bf07 c03f 5b0a 113f cbb2 bd3e e60f 1d3f
000003e0: 4b1b 5e3f 189b 38bf 815d 8a3e d2f5 a43e
000003f0: 3f66 c5bd b035 423e 540c 88be 027c f73e
-0.9476859 0.48211017 -0.48957866 -0.637729 -0.6711706 0.53876853 0.54210407 0.657411
0.26980233 -0.42529425 -0.22706172 0.32834518 0.791181 0.2559282 -0.6157086 -0.476521
-1.0882809 0.1112411 -0.655729 -0.93139195 0.71907675 -0.6655964 -0.21308967 0.2104579
0.47318515 -0.6345493 -0.94411117 0.665569 0.0063890233 0.79765016 -0.30495715 0.32367876
-0.1876123 -0.13139209 -0.6909382 0.17476818 0.17597109 -0.22718805 -0.37515363 -0.7828084
0.59350646 -0.8483213 0.28049266 -0.28475752 -0.53448874 0.0915395 -0.547111 0.178652
0.11252239 -0.8301598 0.04694249 0.3930409 0.41445905 -0.1248291 -0.76112425 -0.3567404
0.24923658 -0.3178055 0.37581453 0.47282404 -0.6097599 -0.13302377 0.2655987 -0.01136268
0.12634856 0.16529095 -0.7493387 0.10170174 0.57854795 0.73040795 0.3810505 0.1788351
0.32017916 -0.54228586 -0.95719373 -0.8351898 0.9135299 0.52809966 -0.7937273 0.20830941
0.7757859 0.84940296 0.77358186 0.65228647 -0.3548884 -0.3737888 0.8597716 0.34368807
-0.5583952 0.7050598 0.2563022 0.53354424 -0.71310025 0.1260639 -0.3387362 0.63446325
-0.13877714 0.19753675 0.04956609 1.0670455 -0.3715028 0.2636905 -0.3268892 0.22833353
-0.89489555 -1.0741264 -0.7776472 0.66646993 0.36101758 0.8874102 0.66795754 -1.0008798
-0.78915596 -1.5213071 -0.57786137 0.58854043 -0.77493936 -0.4440197 -0.9300436 -0.6562233
0.77160215 0.51859784 0.7534257 0.6333978 0.8824866 -0.35238478 0.2933321 0.8927884
0.35894164 0.7498632 0.41925043 0.38387367 -0.45408458 0.4812507 -0.033996467 -0.35809457
-0.70122755 0.9092098 -0.73383963 0.6160921 0.68473196 -0.22198963 -0.5847709 0.7669271
0.66434664 -0.02582456 -0.5604067 0.35901776 0.4110205 -0.86534613 0.9829056 0.78894943
-0.4745319 0.3161063 -0.533838 -0.1665929 0.7057473 -0.07206829 -0.72385705 -0.437185
-0.4242798 -0.44034252 -0.031699397 1.0100343 0.038807016 -0.66833013 -0.034185845 0.4720252
0.40849563 -0.92373675 -0.26435348 0.59984803 -0.39830023 0.3054472 -0.67903763 0.41675693
0.88928485 0.063582934 -0.7480573 -0.44321138 0.08352149 -0.8699662 0.51791716 -0.86650836
0.44792578 -1.0355818 -0.122780986 0.6447856 -1.0654447 0.71364164 -0.5050993 0.15680115
-0.06929728 -0.86283946 0.6342142 0.45943412 1.0117819 0.3792815 -0.7822213 0.85428685
0.038116597 0.35482532 -0.8866006 -0.4037356 -0.9412518 -0.38425016 0.11781376 -0.8774786
0.33972394 0.2738606 0.10764037 -0.7781189 -0.633745 -0.44193634 0.27487478 0.8659663
0.7492515 -0.08463814 0.15446647 -0.9650949 -0.9480989 0.24769595 -0.6554177 0.48223093
-0.79851776 -0.58646643 -0.77193964 0.41184694 -0.20640557 0.79549146 0.52178293 0.47078666
-0.0058025853 0.22018395 -0.4547172 0.15110584 0.24096747 -0.6686726 0.74057376 -0.09377015
-0.75897384 -1.060335 0.71405244 0.8246743 1.5002364 0.56656426 0.3705047 0.61352384
0.86760396 -0.72111654 0.27024463 0.32218796 -0.096386425 0.18965793 -0.26571906 0.48336798

utn.2.weight f4 [128, 256]
00000000: cd8e e5bd 5b67 cd3d 4a2b 783d c6a2 45bc
00000010: 8d93 cb3d e3d3 133c 1c3e 013e 2f06 7abd
00000020: e00d e93d a686 843d 87c9 b23c 2ab5 e63d
00000030: 9c83 093e 13b5 533d c2e1 09bd a075 d23c
00000040: 1a86 9b3d 05b1 77bc 7287 223e 1ccd c03c
00000050: 1f0e aa3d 4a46 783d efd0 823d f282 85bd
00000060: 6316 903d 4df3 6d3d 06ea dc3d 3b99 ab3c
00000070: 3a93 29bb bf5d 883d b19b c63d 2dcc d73d
00000080: 324c dd3d 200a b13d 3502 3e3d 83d4 843c
00000090: 361d 223e ced8 773d f518 363d 06b9 c6bd
000000a0: d93b fb3c 7f0a 923d 6d18 913d 5b20 7cbd
000000b0: 6456 923d 6dd2 b93d e87e 223e 277a ff3c
000000c0: 5592 afbd d347 983d c3d8 003c f386 f6bc
000000d0: 718c 8fbd 005b 2e3d 2496 033e f0b4 f9b8
000000e0: 577e 6b3d 692d 7b3e d114 0c3e f02d 723d
000000f0: 6d6e 713c e708 493d eaec 613c fda6 c93c
00000100: 3ae3 1e3d 7f07 343e 3038 0a3e 8b37 4f3d
00000110: c311 a63d e7b1 bd3c 4bd5 8e3d 2216 0f3e
00000120: eaaf 1e3e 79a2 123e 6bfd 823d 3dcf ae3d
00000130: a15e 603d f110 31bb b996 673c 760b d83d
00000140: 6ac1 5a3b b345 cd3d 2fc6 ef3d 551e 1b3e
00000150: 852d c53d c0f6 4b3e 8a27 e83d 17e5 693d
00000160: c9e9 523d d040 9c3c 8e4f e13d fe05 873c
00000170: 0e7b bd3d e56c 143d a3b7 903d 66f8 973c
00000180: 8bd4 213e 1b0e 013b 4e18 4f3d 0c17 003b
00000190: 5002 9f3d dbd9 5e3d 083b 9f3d 0760 1a3e
000001a0: 9be5 863d dd33 fc3d 4b2f ef3c 55e1 903d
000001b0: 04f1 503e db8e fe3d 970d 313e 74cb 733d
000001c0: 7d60 b73d b536 793d b361 b83b 75bf f43d
000001d0: 5904 583e b0f6 e23c c446 813d 19bf e3bb
000001e0: dc78 89bb b4e1 4ebd 10ee bd3d 0af2 803e
000001f0: a26d fd3d cbe9 543d 43f3 683e cecb 293d
00000200: 0f97 9c3d e2ff 0bbd b36b 3d3c daf6 1d3d
00000210: b8a4 50bd f49c ba3d 384d 69bd 5c8b 863c
00000220: ade5 99bc e770 583d 83ef 303d 866b ca3c
00000230: fdeb 743d 77b8 b73c 9446 053e 2f42 17bd
00000240: 65c3 02bd 3a4a 1d3c 7efe e43d 0abc cb3d
00000250: 0cd9 313d bada 69bd abc3 bfbc e0d6 6a3d
00000260: af78 053e 0483 2dbd a302 923d 071f ef3d
00000270: 4a77 09bd 4b51 63bd ee42 4e3e 6caf 9e3d
00000280: 7210 d33d dc63 ce3d c0c5 e53c 6f97 d93c
00000290: 6e4c d93d 7a34 443e 2546 063c 3042 093e
000002a0: bf7c c03d 5e77 953d b0e6 943d f165 823d
000002b0: 648b c9bc 52b6 7c3d d0c5 0f3e 0558 c03d
000002c0: 7ce1 6d3d 5917 c63d 7b6e b23d af02 b93b
000002d0: b5a7 293e 4546 113d c334 f83b 796b 893d
000002e0: 48d6 843d fb3a 1e3e 27e4 123e 2cbe 10bd
000002f0: 10e9 1b3d 5765 c43d 5a6f 873d fe05 2d3e
00000300: 0efa 4a3d da05 333d d8f7 233c b3fb 063e
00000310: 5c91 d83c a038 073d 95c0 e43c 3c4e 773d
00000320: 2e8b 553b 98b8 293e a63c f5bb d06d 683c
00000330: 5f57 653d 4170 423e c828 083e 2614 733d
00000340: 3a36 a33c fe9a 1a3d 2a97 a73d df2f ac3d
00000350: 0ce1 093e 9fcb e1bd 0d69 633d caf7 353d
00000360: 97ef 96bd 0efe 813e 6343 843d b550 13bd
00000370: d276 6f3d b9f8 a43d 9de1 3c3d 646c b83d
00000380: c8a4 393d 1979 a53d 163d 69ba c0a2 9c3d
00000390: d15d 5c3d 57fc eb3d f268 823d 782a babc
000003a0: 0b44 f23d 731e 08bc 92ac 9cba 4034 f33d
000003b0: dbc9 1e3e 699d 0e3e 0524 57bb dd95 7e3a
000003c0: cdc5 103e 4de6 d23d 37bb 16bd d3eb 173e
000003d0: 577f 1e3d 6efe 243c 5205 05bc 2cd5 803d
000003e0: 9e4d 613d a47e 58bd 1066 983d c7e7 03bd
000003f0: 2793 de3d 035f abbc ea0b fa3d 6f81 913d
-0.11208878 0.10029479 0.06058816 -0.012062734 0.099402525 0.009022686 0.12621349 -0.061041053
0.113795996 0.06470995 0.021824611 0.11265023 0.13429111 0.051686358 -0.033662565 0.025690854
0.07593937 -0.015117888 0.15871981 0.023535304 0.08303475 0.060613908 0.06387507 -0.065191165
0.0703552 0.058093358 0.10786824 0.02094709 -0.0025875107 0.06658506 0.096976645 0.1053699
0.10805549 0.08644509 0.046388824 0.016214615 0.15831456 0.060509495 0.044457395 -0.09703259
0.030668186 0.07130908 0.07084737 -0.061554294 0.07145384 0.09073339 0.15868723 0.031186176
-0.085728325 0.074355744 0.00786418 -0.030093646 -0.07009209 0.042567253 0.12850243 -0.000119069475
0.057493534 0.24529041 0.13679816 0.05912584 0.0147358 0.049080756 0.013789395 0.024615759
0.03879092 0.17580985 0.13497996 0.05059008 0.081088565 0.02315612 0.06974276 0.13973287
0.15496793 0.14319791 0.06395992 0.08535621 0.054777745 -0.0027018155 0.014135056 0.10549061
0.0033379444 0.1002306 0.117077224 0.1514829 0.09627823 0.19918346 0.113356665 0.057103243
0.051492486 0.019073874 0.11001502 0.01648235 0.092519864 0.036236662 0.07066276 0.018551063
0.15803735 0.0019692245 0.050560288 0.0019544987 0.07764113 0.054406982 0.07774931 0.15075694
0.065867625 0.1231458 0.029197356 0.07074229 0.2040444 0.12429591 0.1729034 0.0595202
0.089539506 0.06084319 0.005626881 0.1195058 0.21095408 0.02770552 0.063123256 -0.006950271
-0.0041953158 -0.050508216 0.092739224 0.2518466 0.123744264 0.051980775 0.22749047 0.04145413
0.07646 -0.034179576 0.011561322 0.038565494 -0.050938338 0.09111968 -0.056958407 0.016423874
-0.018786276 0.052842047 0.043197166 0.024709474 0.05979537 0.022426827 0.13015205 -0.036928352
-0.031924624 0.0096002165 0.11181353 0.09947975 0.043419883 -0.05709336 -0.023408731 0.057333827
0.13034318 -0.042361274 0.07129409 0.1167584 -0.03356103 -0.05549745 0.20142719 0.07748303
0.10305871 0.100776404 0.028048396 0.026561467 0.10610281 0.19160643 0.008195435 0.13404155
0.093987934 0.07298158 0.07270563 0.063671 -0.0246026 0.06169731 0.14040303 0.093917884
0.058076367 0.09672422 0.08712479 0.005646072 0.16567881 0.035467405 0.007574649 0.06709952
0.064861834 0.15452187 0.14344846 -0.035337612 0.038064063 0.095896415 0.066130355 0.16896817
0.049554877 0.043706752 0.010007821 0.13181953 0.0264365 0.033012986 0.027923862 0.060377344
0.0032584178 0.16574323 -0.0074840365 0.014186338 0.055991527 0.18988134 0.13296807 0.059345387
0.019923318 0.03774547 0.08183129 0.08407568 0.13464755 -0.11025166 0.055520106 0.044425763
-0.07369917 0.2538914 0.064581655 -0.03596564 0.058462925 0.080552526 0.0461136 0.09005049
0.045323163 0.08079738 -0.0008897347 0.076482296 0.053800408 0.115227394 0.06367673 -0.022725329
0.118293844 -0.008308041 -0.0011953285 0.118752 0.15506689 0.13927235 -0.0032827866 0.00097116624
0.14137955 0.10297833 -0.036799636 0.14836054 0.03869566 0.010070426 -0.008118944 0.06290659
0.055005662 -0.05285515 0.07441342 -0.032203462 0.10867911 -0.020919329 0.12209304 0.071047656

utn.2.bias f4 [128]
00000000: eed4 353d b185 663d 8e4e 023d f4d4 a7bd
00000010: 45a4 a1bd 7319 b13d a9e2 b73d 70a0 4f3d
00000020: a4fb 13bd 9b5b 38bd 13e5 1dbb 2819 d53d
00000030: 4feb b23d 886c 0c3c 34aa a1bd 17c2 3f3c
00000040: c724 97bc 925d a23d 05bb c13d 4258 d2bd
00000050: c178 f03d f9b7 e83d 6d04 f53c 8bc0 193d
00000060: 89a7 aa3d d962 8d3d bd8c a0bd 264d 863d
00000070: b1bc 89bc 5ebc d93d c3d2 eabd 0931 ed3d
00000080: dcbf 563d 1070 9dbd 4c66 a0bd 8989 9bbe
00000090: b995 e63b 65f7 e4bd 164b ffbc b490 57bd
000000a0: bca1 a33d 0b80 b4bd cff3 b6bd c12c b1bd
000000b0: e65b 4f3d 6163 89bd c83e be3d 4965 6e3c
000000c0: d20a 173d 47f0 f7bd 5717 9bbb 32f6 11bd
000000d0: 0631 543d ab51 f13c ac0d b0bd 5416 ea3d
000000e0: ebfb e53d 51c9 adbb ef1f eebd fa0d 99bc
000000f0: 924f 0dbd cefe a63d 981f 96bd ba56 a7bd
00000100: f3fa b4bd 4410 dfbd c40e 03bc b0ec 50bd
00000110: 763a 2fbc 2c00 91bc 866b cf3a f699 9ebd
00000120: d57b b83d 7da5 7b3d 7c9a 6a3d db5f 3cbd
00000130: cf8c e4bd f351 1cbc 07fa 06bd 0215 f4bb
00000140: a2a1 fdbc 60be ed3d dd60 c1bd 613b b4bd
00000150: fe37 b13a 6459 6fbc 92b3 323d e1cc ecbd
00000160: 8fa9 d5bd a020 e13d 1e69 04bd fbc3 e4bc
00000170: 14ae ecbd 283b 473d c724 583c a7c3 943d
00000180: 521d a03d c36e 973d 24d0 71bd 9d89 86bd
00000190: 12f0 1cbd 8ff8 c9bd c091 dbba a5fa 2fbd
000001a0: 7d20 bbbc 9eda 8b3d ba3e abbb 54d1 bbbd
000001b0: f5dc 9bbd 22ff 43bb 963d 8b3d 9d5c efbc
000001c0: 668f 503d 0ca4 a83d acc1 8bbd b6aa 96bd
000001d0: 3b1b e0bd 68e4 e03d 38fb 563b 0265 c8bd
000001e0: 4d4e 92bd 8c2b 6fbd c4f5 0a3d 4898 36bd
000001f0: 75c7 aa3d e1b1 b63d 4ec2 c53d 5006 f3bd
0.04439252 0.05627984 0.031813197 -0.081949145 -0.0789266 0.08647432 0.08978779 0.050690114
-0.036128655 -0.045009237 -0.0024092838 0.10405189 0.08736288 0.008570798 -0.07893792 0.0117039895
-0.018450154 0.07928003 0.09459499 -0.1027074 0.11741782 0.11363215 0.029909337 0.03753714
0.08332736 0.06903619 -0.07839344 0.06557684 -0.016813608 0.10631631 -0.11465981 0.11581618
0.052429065 -0.0768739 -0.078320116 -0.30378368 0.0070368913 -0.11179999 -0.031163733 -0.052628234
0.07989833 -0.08813485 -0.089332215 -0.08651114 0.05062475 -0.06708408 0.09289318 0.014550515
0.036875553 -0.12106376 -0.004733007 -0.03563518 0.051804565 0.029457888 -0.08596358 0.1143004
0.1122969 -0.00530354 -0.116271846 -0.018683422 -0.034499712 0.08154069 -0.07330245 -0.08170839
-0.08836927 -0.10891774 -0.007999126 -0.051006973 -0.0106950905 -0.017700277 0.0015824891 -0.077442095
0.09007994 0.06143712 0.057276234 -0.045989852 -0.111596696 -0.009541023 -0.03295329 -0.0074487934
-0.030960862 0.11608577 -0.09442303 -0.08800388 0.0013520715 -0.014608715 0.043628283 -0.11562515
-0.10432731 0.10992551 -0.03232681 -0.027925482 -0.1155664 0.0486404 0.013192362 0.0726388
0.078180924 0.07394173 -0.05903639 -0.065692164 -0.038314886 -0.09861862 -0.0016751811 -0.042963643
-0.02284264 0.06828807 -0.0052259834 -0.091707855 -0.076105036 -0.002990671 0.06798856 -0.029218966
0.050918005 0.082344145 -0.06824049 -0.07356779 -0.10942694 0.10981065 0.0032803547 -0.09784891
-0.07143841 -0.05839114 0.033925787 -0.04457882 0.08338825 0.089206465 0.09656201 -0.118664384

utn.4.weight f4 [15, 128]
00000000: d78b 15be 386d 80be 7c29 05be 7c6e 263e
00000010: aa4d f838 ceb9 4dbe f291 36bd 6996 3dbe
00000020: 4c41 453c 5ff3 86bd 2961 81bd 0a56 0a3e
00000030: 7774 2cbe 027a c2bd 01ca e33d 7ef1 4abe
00000040: af67 aebc 2f17 89bc d0a0 ebbd a02a b1bd
00000050: 4fd7 b0bd 210b 9bbd c840 8cbe 3fbc 9bbd
00000060: 7a4d 2ebd b0c4 cebe 5a20 5a3d 3b7a f33c
00000070: c1ae 9dbd 5d78 04be ac2e 8fbe fd75 5dbe
00000080: 05a3 67bd 0ccf 0cbe 5495 c9bd bcbb b03e
00000090: 9c8b e5bd dc7a a63d fd1e f33d 64f2 3ebe
000000a0: 9968 2fbe 5362 09be 0abf 7abe 4ce1 69be
000000b0: 4b00 643d 4be2 c63d d538 12be ee64 5cbe
000000c0: 3b29 22be 41cf f83c f997 cbbd d198 1b3d
000000d0: a326 8dbe 9ad3 b63d 3a99 97be 4a90 1fbe
000000e0: b816 53bd f4b0 57bd 42f5 08bd 740c ffbc
000000f0: 6e57 1b3e 102b ffbd ad8d 89be 745b d33d
00000100: 0533 93bd 7a02 68be 8e78 2e3c 0b3f ab3d
00000110: c422 94bd 86ee e8bd 9004 123e 5949 5b3c
00000120: bdfd edbd 7350 b3be 8d5f 1ebd f3dd 2fbe
00000130: 1702 3cbd 86fb a13e 9846 a3bd 0da4 30be
00000140: ee21 38be f8e9 2dbe cfd8 f63d 8bd5 62bd
00000150: 3803 99bd 1b95 e7bc 2c48 5dbe 261c 8fbd
00000160: 4cc8 bdbd 261e 3ebe 2f0e 463b 4026 0d3c
00000170: c7c2 6c3c 2f6c 04bd 50ba f4bd 27a7 6ebe
00000180: 38a0 76be 0964 53be 4012 86be 18b5 05be
00000190: 0be7 6bbe 1187 48be 91b5 39be bbb7 133e
000001a0: 0c33 0cbe 52bc 053b 62a6 20bd 18f0 bbbd
000001b0: 5e14 873d cae3 fabc 9d40 67be 931b b1bd
000001c0: 2560 5bbd 7751 4c3d 8887 14be e763 35ba
000001d0: d307 8bbd 4ee6 53be ab9f 42be 651a 693d
000001e0: 5d6b 09bf 0659 25be a1cf 62bd 18b2 d3bd
000001f0: 39ea fcbd 4db6 3e3c c725 2fbe cd6e d6bd
00000200: fdae 75be 18b8 8a3d f8e7 91bd ea8d 3f3d
00000210: 48df 063e bb32 6abe f928 fdbd 2050 77be
00000220: 0a4f 303d 7219 fb3c ce6e 95bc 3b21 6bbc
00000230: 5fc7 40be 3b0a 7cbd 4668 fa3b c276 943d
00000240: 5f35 cc3d abc1 aabd fcdc 43be 4b1e 9abd
00000250: 2c16 2ebd 24d6 f3bb 706c 19be da36 3dbe
00000260: 16b6 69be d427 a3be ec99 fcbb 4817 443c
00000270: 8300 113d 85d5 84bd 70a5 aebd 3445 21be
00000280: 0765 91bd 844e 02be c0d5 85bd 8f98 b8bd
00000290: fe15 853d 3022 e6bc f25f d1bd 04b8 05bc
000002a0: 0a69 01be 7b2c 6fbd d5ee 42bd 180a 8abd
000002b0: 87c3 42be 0926 11bd 115f d9bd 1ad3 6fbe
000002c0: adbc 21be eace d3bd d00e 20bd 8e1d 00bd
000002d0: 4f32 82bd e4d0 b9bc c16a 7b3e 1b09 3abe
000002e0: b629 263c 5721 76bd da78 3c3e d517 ebbd
000002f0: 9a14 ce3d 8678 6fbd 6618 9fbd 1a22 2f3d
00000300: b86d 20bd 9bb8 6abd bbd4 9a3c 2c6a bcbc
00000310: 5ed4 d4bd a568 a7bd e24c 14bd 4cea f53c
00000320: 1fec 32bd fb4b 83bd e867 33bc f311 b7bd
00000330: 1e99 e1bd aa10 8b3c e868 a3bc 6597 87bd
00000340: 5780 6b3d 85ab 923c 9c46 92bd 750e 1b3d
00000350: 5710 3cbe 0ccc c83d 776e babd 3e0e cd3d
00000360: 1b69 a73c 97e0 7c3c 4f8f b73d eea9 173d
00000370: bd32 743d 2cc8 2fbe 65b3 023c 6f78 ffbd
00000380: f700 5dbc 2053 60bd 567a 4b3c 2475 9dbd
00000390: 61dc a93c 50be d2bd 76cf a63c 383d 6b3b
000003a0: d80f 463c e009 b03c 7733 81bd e9a0 b53b
000003b0: 1d15 0b3d 5cd7 d5bc f474 a5be 92d8 5abe
000003c0: 935f cdbd ee9f 28be 4f6e e83b bc07 123d
000003d0: 272d 17bc 7614 42be 33da 46be a1b9 5d3d
000003e0: 252c 843d 7b7f 3fbe 1931 aabc db01 ab3b
000003f0: 8bdf 4abe 0af0 0cbe d595 8bbe 5544 8fbc
-0.14604126 -0.25083327 -0.13004106 0.16253084 0.000118400276 -0.2009041 -0.044572778 -0.18514408
0.012039494 -0.06589388 -0.0631736 0.13509384 -0.16841303 -0.094959274 0.111225136 -0.19818684
-0.021289675 -0.016734688 -0.11505282 -0.08650708 -0.08634817 -0.07570482 -0.27393174 -0.076042645
-0.042554356 -0.40384436 0.05325351 0.02972137 -0.07699347 -0.1293654 -0.27965295 -0.2162704
-0.056551952 -0.13750857 -0.09842935 0.3451823 -0.11208269 0.08128902 0.11871145 -0.18647152
-0.17129745 -0.13416414 -0.24486938 -0.2283985 0.055664342 0.09711131 -0.14279492 -0.21522877
-0.1583604 0.030372264 -0.09941096 0.037987534 -0.2756854 0.089270785 -0.2960909 -0.15582386
-0.05153534 -0.05265899 -0.03343702 -0.031133868 0.1517007 -0.124593854 -0.26865903 0.10320178
-0.071874656 -0.22657195 0.01064886 0.08361634 -0.072331935 -0.1137362 0.14259553 0.013384187
-0.11620662 -0.35022315 -0.038665343 -0.1717451 -0.04590043 0.3163721 -0.07972449 -0.1725008
-0.17981693 -0.16983783 0.12053072 -0.05537943 -0.07471317 -0.028269341 -0.21609563 -0.06987791
-0.09266719 -0.18566188 0.0030220856 0.008615077 0.014450735 -0.032329734 -0.11949599 -0.23305951
-0.24084556 -0.20643629 -0.261858 -0.13057363 -0.23037355 -0.19582774 -0.18135668 0.14425556
-0.13691348 0.0020406437 -0.039221175 -0.091766536 0.065956816 -0.030626196 -0.22583242 -0.086478375
-0.053558487 0.04988238 -0.14504826 -0.00069194887 -0.06788602 -0.20693323 -0.19006221 0.056909937
-0.5367945 -0.16147241 -0.05537379 -0.10336703 -0.12349362 0.011640144 -0.17104255 -0.10470352
-0.23992534 0.06773394 -0.07124323 0.0467662 0.13171113 -0.22870915 -0.123613305 -0.24151659
0.043044128 0.030651782 -0.018241312 -0.0143511845 -0.18826054 -0.061533194 0.007641825 0.07249214
0.09971117 -0.083377205 -0.19127268 -0.07525309 -0.042501613 -0.007441299 -0.14982772 -0.18477955
-0.22823367 -0.31866324 -0.0077087786 0.011968441 0.03540088 -0.06486038 -0.085276484 -0.15749055
-0.070993476 -0.12725264 -0.0653491 -0.09013473 0.06498335 -0.028092474 -0.10223378 -0.0081615485
-0.12637725 -0.05839203 -0.04759105 -0.067402065 -0.190199 -0.035436664 -0.106138356 -0.23420373
-0.1579463 -0.103422 -0.039076626 -0.031278186 -0.06357252 -0.022682615 0.24552442 -0.18167536
0.010141781 -0.06009039 0.18405476 -0.11479155 0.10062523 -0.05846455 -0.077683255 0.04275713
-0.039167136 -0.05730496 0.018900266 -0.022999845 -0.10392068 -0.08174256 -0.036206134 0.030018948
-0.043682214 -0.064109765 -0.010950066 -0.089389704 -0.11015533 0.01697572 -0.019947484 -0.06620673
0.05749544 0.017904053 -0.07142374 0.037855584 -0.18365608 0.09804544 -0.09103101 0.10012482
0.02043586 0.015434406 0.08962881 0.037027292 0.0596187 -0.17166203 0.007977341 -0.12474143
-0.013489 -0.054766774 0.012419304 -0.076883584 0.020734968 -0.102902055 0.020362597 0.0035894644
0.012088738 0.021489084 -0.06308644 0.0055428636 0.033955682 -0.026103668 -0.3231579 -0.21371678
-0.10027995 -0.16467258 0.007093228 0.035651907 -0.009227074 -0.18953118 -0.19419174 0.054132108
0.064537324 -0.18700974 -0.020775365 0.005218727 -0.19811837 -0.13763443 -0.2726275 -0.017488638

utn.4.bias f4 [15]
00000000: 3f1e 40be b2ae 13bd 7b50 eabd 08b9 b5bd
00000010: de10 34bd 0b90 febd 83b3 d6bd 4a13 4fbe
00000020: 55df f6bc 2b82 03be 6aa4 6cbd 532d 8c3d
00000030: a306 0f3d e1b2 f3bd a3ec dfbc
-0.18761538 -0.036055274 -0.11441132 -0.088731825 -0.0439614 -0.12429818 -0.10483458 -0.20222202
-0.03013579 -0.12842624 -0.057773985 0.068445824 0.03491844 -0.11899353 -0.027334517

itn.0.weight f4 [256, 2]
00000000: 7226 0f3e 25b3 edbf 88ef bbbe aea9 4bbf
00000010: 4dad ad3f abc7 dfbf 562b ebbe 23ab 6cbf
00000020: 7408 1fbd 7bf1 31bf 843e 8cbf fd45 90bf
00000030: 530c adbe 24cb 08bf 0d88 5b40 3eb8 c8bf
00000040: 155d 9bbe 05c3 8cbf f854 37be 60a2 3cbf
00000050: fd06 acbe bd6c 31c0 bdb1 c3bd 6205 32c0
00000060: a8e2 58be 6424 36bf 8f30 88be 75b8 4bbf
00000070: f6ba e73d ed22 4cbf 2859 7a3c da4f c1bf
00000080: 732e acbc 664a 00c0 e1c7 e3bf 67a7 00c0
00000090: ba8c 833e 7f2f 09c0 b84b 15bf 256b 7dbf
000000a0: 9099 c1bf 6083 afbf d169 c7bd e6a9 ffbe
000000b0: a20c 88be b901 63c0 3cb1 2ebe 4a73 61bf
000000c0: a430 6f3d ed22 22c0 8612 e3bd e828 cdbe
000000d0: d518 ac3d 0c85 42bf 9d72 e83d d520 1ac0
000000e0: bd14 993d 7e01 b2bf 46c9 dbbe 545a 58bf
000000f0: 635e 2fbe f0c7 d8be 0226 c5bf f82f dbbf
00000100: 0ce6 d7be befa 63bf 940f 913d 3fbe bbbf
00000110: 08c7 94be 9964 44bf 0200 73bf aa9e 85bf
00000120: fc39 96be c741 6fbf 8bc2 0b3e 0575 29c0
00000130: 0776 043e c353 0ac0 a8f1 9ebc 2200 50c0
00000140: 5707 2dbf e789 81bf 98bf 7fbe a490 45bf
00000150: 44a6 15bd 35fc 18bf 4f5c 81be b9dd 42bf
00000160: ea66 b23c 1963 95bf b352 9fbd e0c3 9abf
00000170: 0423 74bc c688 a0bf 02e2 933e f67a 1cc0
00000180: 4c50 e8be 0ace 69bf dd78 8bbe ae80 4ebf
00000190: 7f82 b73d fcd6 0ec0 9630 47bf d3e7 82bf
000001a0: 3f2f 29bd 6e96 ecbf b213 9cbd 88cf aabf
000001b0: b250 743f 3b47 07c0 4452 6abe 3cb9 6ebf
000001c0: ace5 fbbd 14cf 5dc0 a1c6 7bbf 9eb3 9dbf
000001d0: 57fe 83bf 2957 9ebf 9c5e cabf 6cf4 e7bf
000001e0: 3e6b 98be e05c 7ebf d4a2 c340 2883 5cbe
000001f0: 2563 033c f5a2 adbf 319c f8bd a033 37bf
00000200: ee15 5ebf 9b6b 86bf fea8 f0bd 9d9f 44bf
00000210: 8e18 9bbe b16b 40bf 5095 643f fcc7 0dc0
00000220: c700 82bf d2c2 87bf a64b 90be 3b5a 67bf
00000230: e63b cbba 4f54 09c0 4cee 4fbf 4332 91bf
00000240: 4daa 59be 51a4 2cbf fc7c bebe 8f2c 83bf
00000250: 371b 7bbe 0597 53bf c4cd a1be 6d9c 64c0
00000260: d333 b4bf 8e0c a8bf e9e9 39bd 4ac1 45c0
00000270: b763 fdbc dd0b 33c0 7a40 65be b0c5 92bf
00000280: c01e 0bbc 2ee8 07c0 66f3 3abf a377 88bf
00000290: c3d4 b6be 0341 80bf 31aa 29bf 5e0f 51bf
000002a0: 3d31 8cbf 1c97 cbbf 6b55 85c0 3591 34bf
000002b0: 519f 0fbd e82c 14bf 03cd 55bf 1382 92bf
000002c0: 216a d7be c974 afbf 1dc4 0340 aed2 a0bf
000002d0: 39e9 07bf a672 5abf 79e8 00bf 5d3d 68bf
000002e0: 4051 953d 3818 8abf 0754 db3d 7b2a 26c0
000002f0: debf e93d 6003 46c0 70d5 ecbe 3cf1 61bf
00000300: 083d 70be 0c85 5fc0 1ecd 09bd 925d 16c0
00000310: e08b 3bbf 60bd 8dbf 7bfc 63bf 566f 89bf
00000320: 02e0 0cbe 762b bdbf b160 f6bc 9a5a e4bf
00000330: c485 933f 56fa efbf 606a f2bf 2d82 e6bf
00000340: 0cdc 953e 8c0d 31c0 5f9e 19be 6561 8d3f
00000350: 0656 56bd 33d1 1dc0 f3a7 64be 5a72 4cbf
00000360: 27f4 023e 4baf 1cc0 5e98 1bbf e614 40bf
00000370: b8b4 13be 73f9 38bf 1e74 793e 3467 253b
00000380: a059 8e3f a2ca 10c0 e7ff 5ebe 3d5a 3dc0
00000390: 201d d1bd 22cc 1ac0 071d aebe 85fc 58bf
000003a0: 2b68 683f 0304 febf 8bd0 e2be 0345 75bf
000003b0: 87f8 20bf 07ed 81bf 899a 8bbf 4212 b3bf
000003c0: d6e1 0dbe 7b0d 39bf 4c26 3e3f 96a9 09c0
000003d0: b681 d9bf 386a c7bf 375b 12bd 3eec 29bf
000003e0: 70d7 223d 697f 1ec0 ef5e 4ebe 59bf 80bf
000003f0: ed8b 2ebe 6799 59c0 32d3 863e 582d cdbf
0.1397951 -1.8570296 -0.36706185 -0.79555786 1.3568512 -1.7482809 -0.459315 -0.92448634
-0.03882642 -0.69509095 -1.0956578 -1.1271359 -0.33798465 -0.5343497 3.4301789 -1.5681226
-0.30344453 -1.0997015 -0.17903507 -0.73685265 -0.33599082 -2.7722619 -0.09555385 -2.7815785
-0.21180212 -0.7114928 -0.26599547 -0.79578334 0.11314957 -0.7974079 0.015280046 -1.5102494
-0.021018242 -2.004541 -1.7795373 -2.0102174 0.25693303 -2.143524 -0.5831866 -0.98991615
-1.5124989 -1.3711967 -0.0973698 -0.4993431 -0.26572138 -3.5469801 -0.17059797 -0.8806654
0.058395997 -2.5333817 -0.110875174 -0.40070271 0.08403174 -0.75984263 0.11349986 -2.408254
0.07474659 -1.3906705 -0.42926997 -0.8451283 -0.1712585 -0.4234004 -1.5402224 -1.7124014
-0.421677 -0.8905448 0.070830494 -1.4667434 -0.290581 -0.76716 -0.94921887 -1.0439045
-0.29341114 -0.93459743 0.13648431 -2.6477673 0.12935649 -2.1613624 -0.01940234 -3.250008
-0.67589325 -1.012021 -0.24975431 -0.7717383 -0.036535516 -0.5975984 -0.25265738 -0.7611957
0.021777589 -1.1670867 -0.077794455 -1.2091026 -0.0149009265 -1.254174 0.28883368 -2.445005
-0.45373762 -0.91330016 -0.2724065 -0.806651 0.08960437 -2.2318716 -0.7780851 -1.0226997
-0.041304823 -1.8483407 -0.07620944 -1.3344584 0.9543563 -2.1137226 -0.22882944 -0.93251395
-0.12299666 -3.465764 -0.9834996 -1.232044 -1.0311993 -1.2370349 -1.5810122 -1.8121467
-0.2976932 -0.99360466 6.1136265 -0.21534407 0.008019243 -1.3565356 -0.12139166 -0.7156315
-0.8675221 -1.0501589 -0.11750983 -0.7680605 -0.3029217 -0.75164324 0.8929033 -2.215331
-1.0156487 -1.060633 -0.28182715 -0.90372056 -0.0015505522 -2.1457708 -0.8122299 -1.1343464
-0.21256371 -0.67438227 -0.3720473 -1.0247973 -0.245221 -0.8265231 -0.316023 -3.5720475
-1.4078315 -1.3128831 -0.04538909 -3.0899224 -0.030931337 -2.797599 -0.22387877 -1.146658
-0.008491218 -2.1235461 -0.73027647 -1.066151 -0.357092 -1.001984 -0.66275316 -0.81664073
-1.0952526 -1.590549 -4.166677 -0.7053407 -0.035064045 -0.5788102 -0.8351595 -1.1445946
-0.42073157 -1.3707515 2.0588448 -1.2564294 -0.53090245 -0.8533119 -0.50354725 -0.9071863
0.07290888 -1.0788641 0.10709386 -2.5963428 0.11413549 -3.093956 -0.4625659 -0.8825872
-0.23460782 -3.4924955 -0.03364288 -2.349461 -0.7326031 -1.1073418 -0.8905713 -1.0737102
-0.13757327 -1.4778888 -0.030075403 -1.7840149 1.1525197 -1.8748271 -1.8938713 -1.8008476
0.29269445 -2.7664518 -0.1500182 1.1045347 -0.052328132 -2.4658935 -0.22329693 -0.79861987
0.12788449 -2.448199 -0.6077937 -0.7503189 -0.14424407 -0.7225563 0.24360701 0.0025238516
1.1121101 -2.2623677 -0.21777306 -2.9586327 -0.10210633 -2.4187093 -0.3400652 -0.84760314
0.9078395 -1.9844974 -0.4429973 -0.9580843 -0.6287922 -1.015046 -1.0906535 -1.3989947
-0.13855681 -0.72286195 0.74277186 -2.1509757 -1.699271 -1.557929 -0.03573152 -0.663761
0.03975624 -2.4765265 -0.20153402 -1.0058395 -0.17045565 -3.399988 0.26333004 -1.6029463

itn.0.bias f4 [256]
00000000: 64b8 59be 3502 d8be 4255 71bf e531 83bf
00000010: ab49 dbbe 78c8 4fbe 2db7 82bf cc9e 50c0
00000020: b62c 103e c9ab 4ebf af0a c1be 8f60 f53e
00000030: 7836 2fbe 2d02 febe 0807 7abe f44d 8a3e
00000040: 4614 ab3e f08f a2bf 120a ecbe 906b e93d
00000050: 70d1 37be bc19 05be 5d4d a73d 46ec 63be
00000060: 0ff8 903e 3683 66bf 2f0c 3ebf 23e0 bc3e
00000070: 3f6a 093f 1bdb dabe 3ae1 943e 1921 7dbf
00000080: 7d18 9ebe 2141 15bf 7d6b 88be 20fd 9dbd
00000090: 51b7 883d d124 103e 9f0c 023f e067 073f
000000a0: c1bb debe 8010 c7be ef26 20bf ba8a bd3e
000000b0: 3765 49bf aa8b 11bf 95cd d93e 4698 a7be
000000c0: f631 84be 196b 0c3e 49d9 8f3e 6a34 b2bd
000000d0: 36ee 513e fffc 353c 2dc0 95bf 9483 c3be
000000e0: 3062 dbbf ca28 46bf 6ab8 1cbf ac96 98bf
000000f0: a19f f93e da05 8dc0 97f6 263e e8c6 d6be
00000100: 6ffa 90be 1a31 c53e c046 46be 3d16 96bf
00000110: 40a3 f13d ff98 563d e55f a5be baa3 50bf
00000120: 97b4 2ebf 997e b53e c895 2d3e f531 59be
00000130: a89e 24be 8111 9c3d 6336 e63e 48bb 453e
00000140: a667 503e 5231 33bf 490e 513e 0875 223e
00000150: 419c c5bf 63fd 0f40 e0e3 1b3f 3bd3 5fbf
00000160: 7fb2 7f3c 83d9 adbf 0245 dbbe 7ac8 1fbf
00000170: c808 2e3f de85 033e bc92 94be b392 23bf
00000180: fe11 0fbe 2ee5 283e 9391 64bf 08d9 6bbe
00000190: 8874 ef3e b049 d8bc a5a2 80bf dd87 15bf
000001a0: acbc aebf c0a3 fabd 1c05 90be 2862 7f3e
000001b0: 288a 993d b413 c9bc b0da ffbe 4ade 2fbf
000001c0: f320 c8bf 2ee2 ba3d 2e7a e33e cd05 84bf
000001d0: d9ef 4fbf bfb0 81bf 7949 3cbf 49f5 80bf
000001e0: 938d e8be d05e 8ebf aab1 d1be 479c 3abf
000001f0: d426 953c 6c1d fa3e 5ed6 3fbf 72db 58bd
00000200: 9648 69bf 8ccf dabe 32c6 153f a440 c3be
00000210: 1493 81be 3dbc e73e b264 2e3e e92e bd3e
00000220: f667 113f d08a b4be abbb a93e a7fc 76bf
00000230: 740e a7be 6c1f 1dbf 1068 28bf ee38 563d
00000240: e8bf 81be d592 8bbe e405 44be e30d b23e
00000250: 5270 9e3e 89ee 5ac0 6b69 6fbc 74fd 09be
00000260: 3dc5 61bf 22b6 71bf 6739 c3be dd03 f5be
00000270: 474b b63e 1043 94be 7fec 45bf c102 863e
00000280: d62e d03e 639f 96be 0f11 66bd 26be 91bf
00000290: 25c0 37bf f00a c3bf bea4 81be b2eb 46bf
000002a0: dd27 d23e 54d1 fc3e ed60 5a3d e7d7 913e
000002b0: c19b 67bf 5dbd 4b3e 1c82 4dbd 51c3 f8be
000002c0: 015e 63bf 216c 273f 8723 67bf 749d a83e
000002d0: 0768 aebe 0367 7d3e fda9 25bf f8c7 a6be
000002e0: 9a9f 35be f53c bbbf 9322 16be 166d 503e
000002f0: 714e 84bd 622e 8abe 3ac8 d93c 93c5 f4be
00000300: 3140 323e 60ec 6cbf f226 3ebf 4601 2bbf
00000310: 6eef ce3e 80d9 a1bf 22ec d1be 4a0d 6ebe
00000320: d027 9d3e adcd 6ebf 07cf 9ebd c224 4dbf
00000330: 1785 0cbf c55a f4bc e72a f0be dd7f 25bd
00000340: cd97 a9bf ee51 e43d 7d2f 54bf 8906 aabe
00000350: bb78 f63e f782 1dbf 273f 51bf 93e3 053f
00000360: e228 81bf cb1f ec3e 8094 43bf 5691 d5be
00000370: 92bb 5dbf e313 28bf 2cba 43bf 58c9 883e
00000380: 9799 613c 38ef 95be 4734 16bf 26d4 1cbf
00000390: 9846 59bf 0aa9 42bf f31f 103e 9671 aabc
000003a0: 86a0 abbb 504f 87bf 2655 7fbe 4347 d4be
000003b0: 2aa5 693d 46ca 95be 1bf5 8a3e ba00 fcbe
000003c0: 7e77 a240 f7b8 cc3d dd70 2fbe a832 313e
000003d0: b1f0 5dbf 39f7 74be e4e5 893e 00fa 49bf
000003e0: 2a57 143e cc67 2bbf b6ed 4bbf 132c 48bf
000003f0: ead4 ac3e 07c1 edbe 177d 20bf 8010 d9be
-0.21261746 -0.42189184 -0.9427072 -1.0249602 -0.42829642 -0.20291317 -1.0212151 -3.2596922
0.14079556 -0.80730873 -0.37703463 0.4792523 -0.17110622 -0.49611035 -0.24416745 0.270126
0.33413905 -1.2700176 -0.46101433 0.11397469 -0.17950988 -0.12998098 0.08169053 -0.222581
0.28314254 -0.9004396 -0.7423734 0.36889753 0.53677744 -0.4274529 0.29078084 -0.9887863
-0.30878058 -0.58302504 -0.26644507 -0.077142954 0.0667559 0.14076544 0.5080051 0.52892876
-0.4350262 -0.38879776 -0.6255941 0.37019902 -0.78670067 -0.56853735 0.4253966 -0.32733363
-0.25819367 0.1371273 0.28095463 -0.087014034 0.20501027 0.011107682 -1.1699272 -0.38186324
-1.713934 -0.7740599 -0.61218894 -1.1920981 0.487546 -4.4069643 0.16305004 -0.41948628
-0.28316066 0.38514024 -0.19362926 -1.1725537 0.117987156 0.052392002 -0.32299724 -0.81499827
-0.6824431 0.3544815 0.16951668 -0.21210463 -0.16076148 0.07620526 0.4496337 0.19309723
0.20352039 -0.6999713 0.20415606 0.15864956 -1.543831 2.2498405 0.60894585 -0.8743169
0.015606522 -1.3582004 -0.42826086 -0.6241528 0.6798215 0.12844035 -0.290182 -0.6389572
-0.13971707 0.16493675 -0.8928463 -0.2303201 0.46768594 -0.026402324 -1.0049635 -0.58410436
-1.3651328 -0.12238264 -0.28128898 0.24939787 0.07497054 -0.024545528 -0.49971533 -0.6869856
-1.5635055 0.091251716 0.44429153 -1.031427 -0.81225353 -1.0132064 -0.7354961 -1.0074855
-0.45420513 -1.1122684 -0.4095586 -0.7289471 0.018206991 0.48850572 -0.74936473 -0.052943654
-0.9112638 -0.4273647 0.5850555 -0.38135254 -0.25307524 0.45260802 0.170306 0.36949852
0.56799257 -0.35262156 0.33150992 -0.96479267 -0.32628214 -0.6137607 -0.65783787 0.052300386
-0.25341725 -0.2726046 -0.19142872 0.3477622 0.3094507 -3.420809 -0.014612536 -0.13475591
-0.88191587 -0.9441854 -0.38129732 -0.4785451 0.35604307 -0.28957415 -0.7731399 0.26173976
0.40660733 -0.29418477 -0.056168612 -1.1386154 -0.71777564 -1.5237713 -0.25321 -0.7770339
0.41046038 0.49378455 0.053315092 0.28485033 -0.90472037 0.19896455 -0.05017291 -0.48586515
-0.88815314 0.65399367 -0.90288585 0.32932627 -0.34063742 0.24746327 -0.64712507 -0.3257444
-0.17736664 -1.4627978 -0.14661627 0.20354113 -0.06460274 -0.26988512 0.026584733 -0.47806987
0.174073 -0.9254818 -0.74278176 -0.6679882 0.40417045 -1.2644501 -0.41000468 -0.23247257
0.30694437 -0.93282586 -0.07754331 -0.8013421 -0.5489058 -0.029828439 -0.46907732 -0.040405143
-1.3249451 0.11148439 -0.8288496 -0.3320811 0.48138985 -0.6152796 -0.8173699 0.52300376
-1.0090601 0.46118006 -0.7639847 -0.41712445 -0.86614335 -0.65655345 -0.7645595 0.26716113
0.013769529 -0.29284072 -0.5867352 -0.6126121 -0.8487334 -0.76039183 0.14074688 -0.020806115
-0.0052376417 -1.0571079 -0.24934825 -0.41460618 0.05704228 -0.29255885 0.27140126 -0.49219304
5.0770864 0.09996217 -0.17132898 0.1730448 -0.8669539 -0.23922433 0.26933205 -0.78897095
0.14486375 -0.66955256 -0.79659593 -0.7819225 0.3375619 -0.4643633 -0.6269087 -0.423954

itn.2.weight f4 [128, 256]
00000000: 68fc 02bd 1324 febd aa2f 913d 3419 44be
00000010: 8fd3 f9bd f3be 10bd a336 94bd 5dda 61bd
00000020: be60 0ebd 1765 9cbd 9566 ffbd 85df dc3c
00000030: 08d0 a23b 3a4e 043d 77e2 13be eab2 20bd
00000040: 8a3f bebd d632 63bd 5002 cebd b8b3 c8bd
00000050: 0d16 e5bd 032f c3bd c5d7 08be 6757 32bd
00000060: bd99 c9bb ed7d 2cbd 7c96 0abe 9ab3 9b3c
00000070: ded7 6dbc 34e2 89bd ca41 dcbd 53a4 44be
00000080: 8014 dd3c a518 fb3c 3907 3bbd bf47 9abc
00000090: 380a 92bd 6ff6 dfbd 4699 1f3d a06b eb3a
000000a0: 625e c7bc 79db 63bd e667 bbbd 8a7a 9ebd
000000b0: 2b2e 27bd d656 97bd d48e f3bd dcac 683d
000000c0: b687 8d3d 5774 65bd 802a 66bd b68e 84bd
000000d0: c696 16bc 382e a8bd 3189 3ebd c7aa 6cbd
000000e0: 0f06 16bc 73a3 edbb f22c 3fbc 56e9 a2bd
000000f0: 0da5 093e c3b5 2dbe a33d 8eba 722f 503d
00000100: cda3 dcbd 95ac 0cbd 7b40 eb3c 4a78 51be
00000110: 4995 86bd ecf4 d33c cc7d 0cbd b505 f5bd
00000120: cd2f 153c dff8 26be e2bf 4fbe 8986 01be
00000130: 2066 8e3d 211a 83bd 03b4 0abd 1b84 30be
00000140: 3c00 5c3b 968c c7bd 6ed1 58be ee41 55be
00000150: 2cb5 50bd 79ef 1c3d 7c4e 01be d308 6c3d
00000160: 8001 18be 61f9 583d 7512 d5bc 6966 1ebc
00000170: c270 08be 86db 9a3c 2c32 10be 07cb 57be
00000180: 73bf 5dbd d579 69bd 16aa 2ebd c136 993d
00000190: 2259 fcbd 529a 2bbe 98e3 cbbd ec08 9dbc
000001a0: 8a9e 9fbd 4c9a 643d ea8a 0ebd 1a05 a0bd
000001b0: 8179 a9bc a567 2dbe cf70 11be 04cf 0bbd
000001c0: 8817 82bd b85a 96bc 2da1 dabd fd5c ddbd
000001d0: 1fad fabd 18ad 23be 94ad 6d3b 8133 1cbe
000001e0: 00fd 023c e7c1 96bd b595 1cbe 979d 2dbe
000001f0: 2010 f7bd 0938 a03d bdff 333b 6b92 4f3a
00000200: 72b0 c5bd 5af1 c3bd b691 22be f9ca c1bd
00000210: 32a3 893d 1c3b d2bd 5286 92bd 972e dcbd
00000220: 543c 873d 60a5 d73c 2786 35bd b44c 4b3c
00000230: 8f10 52bd d553 0dbe e49c 22bd 6d37 1dbd
00000240: dae2 0abd e067 52bd f74f 34be 2bdb 433d
00000250: f1c3 5abe 4cae ddbd 77fe 90bd 7584 733d
00000260: eb9e 47bd 5d8a 85be 33e6 cb3d fa25 53bd
00000270: abd4 cebc eb44 4fbc c07e ebbd 8e80 8b3c
00000280: eb2c ffbc 7eee 8fbd 8e96 d53d 6067 71bc
00000290: 3830 9a3c a306 bbbc fe30 a1bd 6697 9cbd
000002a0: 61aa 27be f3ae 1e3d 1c2e 32be e2df 24be
000002b0: f50e 48be cd82 0bbd 7083 18bd 919b 893d
000002c0: 437f c3bd 50c5 313d 8be6 5bbc d053 11be
000002d0: 8287 293e c27d 5cbd f461 133b ffac 65bd
000002e0: 6fb1 d4bc 5a6f 4fbd 069b a1bd c75f de3c
000002f0: 5f9c 14bd a47d e7bd eeab b4bd 9109 f43d
00000300: 308e 19be c8e9 553d 60a9 90bc 2079 55bc
00000310: 34dc c0bc f9b2 22bd b63c 59bc ef03 27bd
00000320: 1c60 83bd 61a9 dbbd 77b8 b3bd 942d a73c
00000330: f89d 0cbe 7175 65bc b4f8 483c b216 0ebe
00000340: 2f07 06be f6a4 22be 4e8b 3f3c 1b95 f4bd
00000350: f3b4 abbd b744 55bd 131b bd3c 2852 10bd
00000360: 64a3 c53d f2cc 3ebd 1f53 a1bd 4a5e 5bbd
00000370: 27a6 68bd 293c bbbd 2185 e2bd 00e7 02be
00000380: 8053 04bd 2a0d 0abd 9cb9 d5bd fb25 9a3d
00000390: 5806 e2bd 04d6 90bd 01a3 9e3d 9d3e 1a3c
000003a0: 049a 00be 922a 54bb 00ee 38be d018 67bd
000003b0: 82ad 9bbd 5734 ac3d 9661 07bd 41d9 dfbc
000003c0: 231f 94bc 5daf 5e3d 9665 d03c 620c ca3c
000003d0: cf30 6e3c 5a4e a03d 3741 2bbe 073a 5f3a
000003e0: 7d29 e0bd 4892 f4bb 9291 4dbd a1e4 1b3d
000003f0: 924c 4fbd 6393 963d 50db 01bc 2451 22be
-0.031978995 -0.12409224 0.07089169 -0.19150239 -0.12198555 -0.035338353 -0.072369836 -0.055139888
-0.03476023 -0.07636469 -0.12470738 0.026962051 0.004968647 0.032301165 -0.14441858 -0.039233126
-0.09289463 -0.055468403 -0.10059035 -0.09799904 -0.111858465 -0.09530451 -0.1336356 -0.043540385
-0.0061523602 -0.04211228 -0.13533968 0.01900654 -0.014516799 -0.06732598 -0.10754736 -0.1920331
0.026987314 0.0306514 -0.045661185 -0.01883304 -0.07130855 -0.10935675 0.038964532 0.0017961152
-0.024336997 -0.055629227 -0.091506764 -0.07738216 -0.040815514 -0.073896095 -0.11892477 0.056805477
0.069106504 -0.056019153 -0.056192875 -0.064725325 -0.009191221 -0.082119405 -0.046517555 -0.057780053
-0.009156718 -0.0072521507 -0.011668431 -0.079546615 0.13441868 -0.16963868 -0.0010852109 0.050826497
-0.1077343 -0.034344275 0.02871727 -0.20456043 -0.06571443 0.025873624 -0.034299657 -0.11963979
0.009105635 -0.16305874 -0.20288041 -0.12648977 0.069530725 -0.06401468 -0.03386308 -0.17237894
0.0033569476 -0.097436115 -0.21173641 -0.20825931 -0.05095403 0.038314316 -0.12627596 0.057625603
-0.14844322 0.0529722 -0.026009778 -0.009667971 -0.13324264 0.018903505 -0.14081639 -0.21073543
-0.05413766 -0.057000954 -0.042642675 0.074811466 -0.12321688 -0.16758087 -0.099555194 -0.019169293
-0.07793911 0.05581121 -0.034800448 -0.07813473 -0.02068782 -0.16934069 -0.1420319 -0.034132972
-0.063521445 -0.018353805 -0.10675273 -0.10808752 -0.122400515 -0.15983999 0.003626679 -0.15254022
0.00799489 -0.07361203 -0.15291484 -0.16954647 -0.120636225 0.07823188 0.0027465664 0.00079182413
-0.09652795 -0.095675185 -0.15875897 -0.09462542 0.0672058 -0.102651805 -0.07154526 -0.10751074
0.066033036 0.026323974 -0.04431739 0.012408424 -0.051285323 -0.1380151 -0.039700404 -0.038382936
-0.03390775 -0.051368594 -0.17608629 0.047816437 -0.21363808 -0.1082426 -0.07079785 0.059452493
-0.04873554 -0.26082125 0.099560164 -0.05154989 -0.025247892 -0.012650709 -0.11498785 0.017029073
-0.031149348 -0.07027911 0.10429107 -0.014734119 0.01882182 -0.022830313 -0.07870673 -0.076460645
-0.16373588 0.038741063 -0.17400402 -0.1610103 -0.19536956 -0.03406029 -0.037234724 0.06719125
-0.095457576 0.043401062 -0.013421665 -0.14192128 0.16555598 -0.05383087 0.0022488805 -0.056073185
-0.025963513 -0.050643303 -0.078908965 0.02714528 -0.03628194 -0.11303261 -0.088218555 0.11915887
-0.14995646 0.052224904 -0.01765889 -0.013029367 -0.023542501 -0.039721463 -0.0132591035 -0.040775236
-0.06414816 -0.10725666 -0.08775418 0.020407476 -0.13732135 -0.014005051 0.012266327 -0.13875845
-0.13088678 -0.1588324 0.011690928 -0.11942502 -0.08384123 -0.052067485 0.023084199 -0.0352346
0.09650305 -0.04658217 -0.07877182 -0.053556718 -0.05679908 -0.09142334 -0.110605486 -0.12783432
-0.032306194 -0.03370396 -0.10435793 0.075267754 -0.11036366 -0.0707207 0.07745934 0.009414342
-0.12558752 -0.0032374007 -0.1805954 -0.056420147 -0.07601453 0.084084205 -0.03305205 -0.027325274
-0.018081253 0.05436646 0.025439065 0.024664108 0.014538004 0.078274444 -0.16724096 0.00085154217
-0.10945413 -0.007463727 -0.050187655 0.038059834 -0.050610133 0.073523305 -0.007925823 -0.15851265

itn.2.bias f4 [128]
00000000: e455 01bd b79c d3bd 110e ffbd 2d31 bb3d
00000010: 5da7 32bd 9fdf 9abe 6de4 a13d 1200 12be
00000020: fba1 853d 1f47 d5bd 9965 abbc dca2 c2bc
00000030: a6fe bb3c 2b62 a23d 7a56 8d3d 39ab c4bd
00000040: 56aa cbbd 486e 913d a5a3 f13d cf23 aabd
00000050: faec 1abd 3e8a 003f a701 64be a9c4 c9bc
00000060: ab95 dabd 7890 c03c 23b0 1a3e 4b01 a3bd
00000070: 9a06 6f3b 2207 ea3b fc32 863b 3e4e 893d
00000080: 7f27 9b3d b666 a43d 8230 00bd 3d59 f6bc
00000090: 31c4 7c3b 0830 453d 0866 1a3e 1acb 0ebf
000000a0: 5007 7e3d 109e fbbc fc25 65bc 210e 643d
000000b0: 6245 a73d 1765 853d 25fa 8fbe c0f9 5c3c
000000c0: 45e6 1bbd 62e0 36be fed0 dabe c93d 1fbb
000000d0: 00f7 acbc 4dea df3d 985e a83a da82 883d
000000e0: d153 16bd be22 003e eb8a 24bc cff5 d73d
000000f0: 5777 07bd d703 a53e 896e 403c 5e4d 7e3c
00000100: 9f68 003d f224 0cbe 09ce 133d 5780 bb3b
00000110: 8aa2 c43c e776 ec3d d0c0 b5bd b2fa ddbd
00000120: 3c12 803c 49d2 3bbd a26b adbd d247 343d
00000130: 93fd ae3d 55b4 a23d 51fb 56bd 3528 c93c
00000140: 81a3 973d bc32 eb3d c071 35bd d742 8dbd
00000150: a666 873d 0ad0 45bd 09d6 10bc ee3a cabd
00000160: e9ef 353c e1bc 663b 5cbd 2d3c 84a8 28be
00000170: bc19 b83d e399 3b3f a667 04bf 27b8 f13d
00000180: db32 303d 11c6 3c3c 2a79 4abd ad4e 91bb
00000190: 187d c53a ec72 b43d 0e07 f0bc 5bbe e2bd
000001a0: bcb3 cc3d 76fa b3bd 90ed 09be 8b66 753c
000001b0: 250d aa3d 2afc 55bd d71e fe3a e363 3abc
000001c0: 756b 383d 6bcb 553e 4f9a 853d f7e3 823c
000001d0: b9ae 253d 40b2 c3bc 73e1 a73d dd6c af3c
000001e0: 71fa 8b3c e898 24be 82d2 0ebd c2ae 963c
000001f0: deb5 90bd d51c 1a3c 59dc 3bbc 8802 653d
-0.031576052 -0.10332625 -0.12453855 0.09140239 -0.04361664 -0.30248734 0.07904897 -0.1425784
0.06525036 -0.10413956 -0.020922469 -0.023759298 0.022948574 0.0792888 0.0690126 -0.09602971
-0.099445984 0.071011126 0.11798791 -0.08307611 -0.037823655 0.5021094 -0.22266255 -0.024629908
-0.10673078 0.023506388 0.15106253 -0.07959231 0.003647244 0.0071419636 0.0040954333 0.06704377
0.07575893 0.08027403 -0.03129626 -0.030071849 0.0038569088 0.04814151 0.15077984 -0.5577866
0.062018692 -0.030715019 -0.013986107 0.055677537 0.081675306 0.06513422 -0.28120533 0.013487279
-0.0380614 -0.17859033 -0.42737573 -0.0024298301 -0.021113873 0.10933361 0.0012845574 0.06665583
-0.036701027 0.12513253 -0.010042886 0.10544931 -0.033072796 0.32229492 0.011745104 0.015521375
0.031349774 -0.13685969 0.036085162 0.0057220864 0.024003286 0.11546116 -0.08874667 -0.10838832
0.015633695 -0.04585484 -0.08467795 0.044013806 0.08544459 0.07944552 -0.052485768 0.024555305
0.07404233 0.11484286 -0.044297934 -0.06897514 0.066113755 -0.048294105 -0.008840092 -0.09874521
0.011104562 0.0035207795 0.010604229 -0.16470534 0.089892834 0.7328169 -0.51720655 0.118027024
0.04301725 0.011521832 -0.049431957 -0.0044344277 0.0015067188 0.08810982 -0.029300239 -0.11071464
0.09995219 -0.08788006 -0.13469529 0.014978061 0.08303288 -0.052242436 0.0019387853 -0.011376354
0.045024354 0.20878379 0.06523573 0.015977843 0.04044983 -0.023888707 0.08197298 0.021414215
0.017087193 -0.16073954 -0.034868725 0.018393878 -0.070659384 0.009406288 -0.011466109 0.055910617
