ckpt/eedi/ncd.pt (torch, 590351 bytes, 7 tensors)

k_difficulty.weight f4 [27613, 4]
00000000: 48c6 e1bf e9b3 b9bf 6ce8 17c0 6403 0ac0
00000010: 864d 1b3f 8505 5d3e ebe0 8d3e 5b66 ca3e
00000020: 99fc 9abe cdc5 9b3f 5ede fa3e 255c 603f
00000030: e4a6 59c0 c5d2 39c0 65eb 77c0 3c64 59c0
00000040: d58a 0240 467c f43f 10d1 e43f 65e6 f33f
00000050: effc 953f a0d4 973f 663c 443f cad1 223f
00000060: 6405 243e 8699 483e 3ed8 c23e f62c c53e
00000070: 8d39 843e 96b8 a33e 433c 0abf c5a5 de3e
00000080: 4c34 4cbd b475 96be 1aba bbbf ca79 47bf
00000090: fc83 373f 7c27 f63f 9a19 333f 41e0 d93f
000000a0: 5e06 8f3f c57c 9c3f 57d0 343f b349 8d3f
000000b0: 9fcc 2f3e df33 c3bf 0837 9dbe c6ed dc3e
000000c0: 73cb d0bd add4 febe cff5 9e3d 4851 c33e
000000d0: 20f0 f7bf 0bc0 25c0 8f18 b2bf 3d8d bbbf
000000e0: 15cc 5940 4e72 4d40 02b9 3140 3296 3a40
000000f0: a52f 2cc0 495f 13c0 3517 35c0 f312 4cc0
00000100: d402 04bf fa89 8bbf f5e3 57bf 9668 98be
00000110: 5a6f 8dbf d5c1 a7bf de83 8fbf 996a bdbf
00000120: d75a ddbe 9415 19bf b1f6 0e3e 1381 3cbe
00000130: 7200 07c0 e3ef c9bf 161d 28c0 754b 06c0
00000140: 5309 803f 9528 c83f 71fb 733f 407a 673f
00000150: 4c1f 42bf 5034 14c0 e2ae 6fbe ac7b f2bf
00000160: 7fb3 07bf 2402 9fbf bb33 b7bf 0e3b 55bf
00000170: 44dc d1bf d2d5 c3bf 08dc 32c0 ac32 d4bf
00000180: 04a6 143f 6571 9d3f 2c24 2e3f 4b92 423f
00000190: 31cc 4640 731b 6b40 6906 4840 d81c 4940
000001a0: 7cee 7f40 6623 8c40 46f6 8240 530c 8840
000001b0: 2de7 2f3e c424 0cbf 1330 a4be 5db2 1b3f
000001c0: a639 4ebf e185 56be 37e7 acbf ae0e 1ebf
000001d0: 1c4e c03f ef28 5f3f bfff 823f 51d5 9b3f
000001e0: 00ff e33f c820 0940 6b2a ab3f f2f9 c63f
000001f0: 1610 1dc0 8188 d6bf 9a24 4ec0 1604 25c0
00000200: b758 3c40 5d84 4940 34ba 3640 475b 3740
00000210: 41ce 7cc0 4c5a 71c0 1439 80c0 7000 7fc0
00000220: 9d27 1bbf 6ca1 913c 6edb c3bf 4401 28bf
00000230: eb3b b13e 055c 473f 112f 633e 275b 85be
00000240: 1aed fb3c 92bf b03d dc5d 493d 0b3e a63e
00000250: 629b 2b3f 086d 8b3f c91d bc3f 1da7 563f
00000260: 29cf a73e 32ec f3be 3a6d 45bf 2d73 9c3e
00000270: d39e 57c0 e1e9 25c0 f0f4 48c0 bdec 46c0
00000280: 595a e9be 87f6 f7bf 5464 39bf b488 44bf
00000290: 242e 67bf 7a72 abbf 8df5 45bf f13f 65bf
000002a0: dee2 313f ed28 963f 117a b93f 2f78 1b3f
000002b0: ffc0 ca3f 2d07 e03f a044 823f 8cf1 db3f
000002c0: d65f b93e f2f2 f13d d749 2bbc a042 d93d
000002d0: 2434 94bf 6943 b5be 38fd 57bf 2fdc 18bf
000002e0: b456 8bc0 2b69 8ec0 eed5 97c0 0fbe 8bc0
000002f0: f635 f3bf 3f1a 96bf 365f d8bf 2b10 e5bf
00000300: 6931 eb3e 0a94 973f 845b 213f df5c 9f3f
00000310: 035b fb3f 2ab4 873f b3ef 0f40 7722 e93f
00000320: df60 58c0 731a 22c0 30ef 83c0 41f6 59c0
00000330: 1510 c9bf 53b8 a3bf f3e9 0dbf 23f3 93bf
00000340: 5997 5c3f 3fd0 8b3f f6c3 bb3f fd87 803f
00000350: b18e 89be 6c39 cd3e 83c4 e4bd cb13 07bf
00000360: 32d1 08bf 3e43 92be c81f c5bf e6c3 99bf
00000370: 08cd 553e 0e88 b1be 4dea c93e 1cb6 d33d
00000380: 190f 873e abc5 923f e403 b93e 645b 5bbe
00000390: 308b f3bf 3b4a b1bf f66f 06c0 0386 afbf
000003a0: cb71 6ec0 3126 7bc0 f803 6ac0 6ef0 73c0
000003b0: 2e0a 1a40 f0d6 4440 3474 0c40 ee78 3140
000003c0: 906c 923f 5a57 f83f 16d1 af3f 7375 ea3f
000003d0: 3361 c53b 0af1 cf3f c302 2c3f d205 ec3e
000003e0: e0a7 5cbf 740b cc3e f2f3 fdbe 0666 b5be
000003f0: 8adb 6d3e 0d86 71bd 9444 58bf 6f0d b1be
-1.7638636 -1.4508029 -2.373561 -2.156457 0.60665166 0.21584137 0.2771066 0.39531216
-0.30270842 1.2169739 0.48997778 0.876406 -3.4008112 -2.9034894 -3.8737423 -3.3967428
2.0397236 1.9100425 1.7876301 1.9054686 1.1717814 1.1861763 0.7665466 0.6360136
0.16017681 0.19589815 0.38055605 0.38510865 0.25825158 0.31976765 -0.539982 0.43485847
-0.04985456 -0.29386675 -1.4666169 -0.7792021 0.7168577 1.92308 0.6996094 1.7021562
1.1173818 1.2225577 0.706304 1.1038116 0.171679 -1.5250205 -0.30706048 0.43150157
-0.10195055 -0.49771634 0.07761728 0.3814795 -1.9370155 -2.5898464 -1.3913745 -1.4652478
3.4030812 3.2101016 2.776917 2.9154172 -2.690408 -2.3026907 -2.8295414 -3.1886566
-0.51566815 -1.0901482 -0.8433221 -0.29767293 -1.1049607 -1.3106028 -1.1212118 -1.4798156
-0.43233368 -0.5979855 0.13961293 -0.18408613 -2.1094022 -1.5776333 -2.6267753 -2.0983555
1.0002846 1.5637385 0.95305544 0.90420914 -0.75829005 -2.315693 -0.23406556 -1.8943992
-0.53008264 -1.2422528 -1.4312662 -0.83293235 -1.6395345 -1.5299628 -2.7946796 -1.6577964
0.5806582 1.230023 0.68023944 0.76004475 3.1062129 3.6735504 3.1253912 3.1423855
3.998931 4.379321 4.0925627 4.2515044 0.1717803 -0.547436 -0.32067928 0.60819036
-0.80556715 -0.20949508 -1.3508061 -0.6174115 1.5023837 0.87171835 1.0234298 1.2174474
1.7812195 2.1426258 1.337232 1.5545027 -2.4541068 -1.6760408 -3.220984 -2.5783744
2.9429147 3.1487038 2.855115 2.8649461 -3.9500887 -3.7711363 -4.0069675 -3.9844017
-0.6060732 0.017777167 -1.530134 -0.6562693 0.34616026 0.77874786 0.22185923 -0.26046106
0.030752707 0.08630289 0.049161777 0.3246921 0.6703397 1.0892649 1.469659 0.83848745
0.32775238 -0.4764114 -0.7711979 0.30556622 -3.3690689 -2.5923998 -3.1399498 -3.1081994
-0.45576742 -1.9372109 -0.72418714 -0.7677109 -0.9030478 -1.339431 -0.77327806 -0.8955069
0.69486797 1.173124 1.4490377 0.6073026 1.5840148 1.750219 1.0177193 1.7183089
0.3620593 0.11813916 -0.0104546165 0.10608411 -1.1578412 -0.35402992 -0.84370756 -0.59710974
-4.354334 -4.450338 -4.7448645 -4.3669505 -1.9000843 -1.172676 -1.6904056 -1.7895559
0.45936134 1.1842053 0.63030267 1.2450217 1.963715 1.0601857 2.249005 1.8213643
-3.3809125 -2.5328643 -4.1229477 -3.4056551 -1.5708033 -1.2790626 -0.55435103 -1.1558574
0.8616844 1.0922927 1.4669178 1.00415 -0.26866677 0.40082872 -0.11170294 -0.52764577
-0.53444207 -0.28566927 -1.5400324 -1.2012908 0.20878994 -0.34674114 0.3943657 0.10337469
0.26378706 1.1466573 0.3613578 -0.21421582 -1.9026852 -1.3850778 -2.1005836 -1.3712772
-3.7256954 -3.924206 -3.6564922 -3.8115497 2.4068713 3.0756187 2.1945925 2.773006
1.1439381 1.9401658 1.3735683 1.8317093 0.00602355 1.6245434 0.67191714 0.4609819
-0.86193657 0.39852488 -0.49600178 -0.354294 0.23228279 -0.05896573 -0.8447964 -0.34580562

e_discrimination.weight f4 [27613, 1]
00000000: 9c79 ff3f 1ddd a03d 63f2 d83f 888e 7d40
00000010: 72ab 3a3f b927 d23f d027 03bf 4af2 1abf
00000020: 6ff1 fb3f f455 f63f 4bda a03f 8d09 243f
00000030: d85e 103f caeb 653f dbe2 3540 2a33 9140
00000040: 7ab2 2640 c8ec 523e 3535 8f3f 8509 3c40
00000050: 7d39 0140 8944 b53f 4859 0840 0675 5e40
00000060: 1978 8ebf 61db 3e3f ad32 5240 8c85 383f
00000070: 5c09 8a40 8393 8c3f 39a0 e53d 1b31 8840
00000080: dcb6 cf3f e5b3 7940 dd2c 1040 ff75 a5bf
00000090: cfc9 233c fa19 f83f b111 e03f 6c69 a140
000000a0: dd42 fa3f faa1 fe3e a7f0 bcbf 4003 2e40
000000b0: 04ed ef3f 2ffd 84bf 84e5 9640 2129 0640
000000c0: 984d e03f 0027 ad3e 1c0c a640 cf4a f93f
000000d0: efdf 1340 25f4 903f 0a71 293f 8491 b1be
000000e0: 0f82 993e 06fb fe3f d428 3040 169c cd3f
000000f0: 8a4f 5540 3aea acbe fb83 933d c1e6 763e
00000100: f109 1040 5f6c 3340 6f2b 6dbf 67e9 1440
00000110: a311 6e40 aa19 3f3f 0246 22bf 9b91 073f
00000120: 6ece 3740 8cee 6440 08c5 b63f a680 9640
00000130: e1cb 6240 62f0 f43b 61af dcbf d938 2f40
00000140: 7f42 b340 e16e 83be 7f13 5f3f bd2e b340
00000150: c96f 2dbf bc49 01c0 d35c 2abe 9a7a c13f
00000160: 0de3 a5bf ea00 c43f 7262 e53f a006 553f
00000170: 37dc 8e3f 3f26 1b3f 7380 1e40 0950 723f
00000180: 5656 503f 7219 4b3e ce07 2f40 578e 3840
00000190: be28 883f 896c 8d40 b227 3940 f24a 823f
000001a0: e28a 2140 89a5 473e f66d 613f e44c 8540
000001b0: 8b3b 823f e09f 963f 381b 9a3f 519f edbf
000001c0: 7c93 f93e 3e5c ee3f 44a6 29bf 5b74 6540
000001d0: 57c8 a8be c306 f5bd 479e 8cbe 8559 b83e
000001e0: 2998 e63d 204f 273e 996f b73f b8e1 ef3d
000001f0: 41b0 b63f 39a3 513e 9831 e03f 4ebe fc3f
00000200: 59f6 4f40 4d76 d23d 91af a43d ee1b 383f
00000210: 8d1b 483e 4d1c 1240 6ddd a73e 4301 a53f
00000220: 4dab b43f b6d6 4a40 2dca edbe 83d9 2bbc
00000230: 1909 dd3f 63a1 a73e 37ac 7a3f b9a0 0f40
00000240: d9ba 1040 07ea a33e f41d 9fbe b2f5 233f
00000250: 21f7 8140 2ec9 3b40 225e e93f 6f8e 0b40
00000260: 7d87 283f f9b2 ec3f e69c 1940 690d 0d3f
00000270: 695e 50bf f842 313f d114 ef3f 209a 0140
00000280: a2fb d93f e0d0 9040 360a 463f 9bcb 8d3f
00000290: 8e29 de3f 2c63 5440 47f7 0340 5128 8f3f
000002a0: be13 8240 4f9a 9940 244a eb3f 0bbf 23bf
000002b0: 5e80 5f40 dac0 0440 c21e fd3f 0268 5fbe
000002c0: fa14 2240 9eb0 263f cd6c 1540 89cd ba3e
000002d0: adc0 5240 5698 113f c4c9 183f a674 693e
000002e0: d04c f53f 3f72 6640 b236 cd3f af16 5d40
000002f0: 7934 d33e c21f 1640 10ba 373f 7922 0340
00000300: 345f 083f 4e48 d83e f850 a63d df18 2a40
00000310: bd9b 5f40 5f2e a9bf 9dc6 04bd 7525 2f40
00000320: 9abc 853d 0579 ac40 7b86 0a40 3dc8 603f
00000330: fb66 bd3f 52c8 a03d 5ee5 ca40 d1d4 1440
00000340: 4bfb 0540 ec7d 43bf b20c fc3f 8152 bcbd
00000350: 365c 4bbf 7df1 d13f 056e a340 b9f5 2c40
00000360: b26a 0440 71f6 4a3f 85f0 5e40 e1a3 11bf
00000370: 3cda 1b40 1374 dd3d 73f8 65be 6398 7bbf
00000380: 5396 3f40 0b29 003d 2458 773e 4fdf 5d3f
00000390: 406d 1a40 6830 3040 7477 c93f 7a63 4f40
000003a0: 7ed5 ab40 e74b 62be 80bd 303f 8586 2340
000003b0: 8d24 4440 b316 4640 438b 2fbe 8b44 6d3f
000003c0: bea2 293e 659c 6040 9d8c 7b3f 180b 2040
000003d0: 7af2 eb3f fec5 8e40 b398 5c40 e2fe 083f
000003e0: 9fc6 3a3f 7c81 ef3e e107 5540 a344 ba3f
000003f0: d230 e63f e5b4 d63f 2c45 2840 8086 903f
1.9958987 0.07854674 1.694897 3.9618244 0.72917855 1.6418372 -0.51232624 -0.60525954
1.9683055 1.9244981 1.2566618 0.64077073 0.5639472 0.8981291 2.8419712 4.5374956
2.6046433 0.20598137 1.1188112 2.938081 2.0191338 1.416154 2.1304493 3.4758925
-1.1130401 0.74553496 3.284343 0.72078776 4.3136425 1.0982517 0.11212201 4.2559943
1.6227679 3.901605 2.2527382 -1.2926635 0.009996845 1.9382927 1.7505399 5.044119
1.9551655 0.49732953 -1.4760941 2.7189484 1.8744206 -1.0389766 4.715517 2.0962603
1.752368 0.33818817 5.188978 1.9475955 2.3105428 1.1324507 0.6618811 -0.34681332
0.2998204 1.9920356 2.752492 1.6063259 3.3329797 -0.3377245 0.07202908 0.24111463
2.2506068 2.8034894 -0.926444 2.3267457 3.7198265 0.74648535 -0.63388073 0.5295655
2.8719745 3.5770597 1.4278879 4.703204 3.5436938 0.007474945 -1.7241021 2.7378447
5.601867 -0.2567053 0.87139124 5.5994554 -0.67748696 -2.0201254 -0.16636972 1.511554
-1.2959915 1.5312779 1.7920668 0.83213234 1.1160954 0.60605234 2.47659 0.94653374
0.8138174 0.19833925 2.7348514 2.8836877 1.0637434 4.419499 2.8930478 1.0179121
2.5241017 0.1949674 0.8805841 4.165636 1.0174421 1.176754 1.2039557 -1.8564245
0.48745334 1.86219 -0.66269326 3.5852268 -0.32965347 -0.1196418 -0.27464506 0.36005798
0.11259491 0.16338778 1.4330932 0.11712974 1.4272538 0.20472421 1.7515135 1.9745576
3.2494109 0.1027647 0.08041299 0.7191762 0.1954176 2.2829773 0.32786122 1.289101
1.4114777 3.169355 -0.4644331 -0.010488871 1.7268401 0.32740316 0.9791903 2.2441847
2.2614043 0.32014486 -0.3107754 0.64046776 4.061417 2.934154 1.8231852 2.1805685
0.6583174 1.8492118 2.4002013 0.5509859 -0.8139406 0.6924281 1.8678228 2.025032
1.7029917 4.5254974 0.7735933 1.107776 1.7356431 3.318553 2.0619676 1.1184179
4.06491 4.8000865 1.8382001 -0.63963383 3.49221 2.0742707 1.9775012 -0.2181702
2.5325303 0.65113246 2.3347657 0.36484936 3.29301 0.5687307 0.5968287 0.22798404
1.9164066 3.600723 1.6032317 3.4545095 0.4125097 2.3456883 0.71768284 2.048979
0.5327027 0.42242664 0.08120912 2.657768 3.4938805 -1.3217276 -0.032415975 2.7366612
0.065301135 5.389773 2.164458 0.8780554 1.4797052 0.07850708 6.340499 2.3254893
2.0934627 -0.76364017 1.9691374 -0.09195424 -0.7943758 1.6401821 5.10718 2.7024977
2.0690122 0.7928229 3.4834301 -0.56890684 2.435195 0.10813155 -0.22458057 -0.982794
2.99355 0.03128914 0.24154717 0.86668867 2.412918 2.7529545 1.5739579 3.2404466
5.369811 -0.22099267 0.69039154 2.5550854 3.064731 3.0951355 -0.17142968 0.92682713
0.16565987 3.5095456 0.98261434 2.500677 1.8433373 4.461669 3.44682 0.5351392
0.7295932 0.46778476 3.328606 1.4552196 1.7983649 1.6773955 2.629222 1.1291046

prednet_full1.weight f4 [128, 4]
00000000: 4f29 053e 8e96 e83d 75c8 1d3f 5a2e 473d
00000010: 0310 f43d ffb3 823e 1c12 9b3e 92c5 fc3d
00000020: bf1b 2a3e 1a05 923d e2f9 983d 0ffa 063e
00000030: 79f0 4b3e dc82 fc3d 7a8a 113f 90c0 da3d
00000040: d058 273e d129 c13d 9b17 bd3c b4a8 213e
00000050: 28d5 923d 75dd 003e de20 473d 1578 1b3e
00000060: 0000 0000 66aa 5540 0240 5a3d 6b7b b03d
00000070: 3410 9f3d 5d9f 1c3e 3cef 573e 0938 3a3e
00000080: daa4 d63d 09e7 c63c 8b4f 993e 26cc 393e
00000090: 6551 713e 41ef c83d 5144 873d 18a2 0f3e
000000a0: 0000 0000 0de8 cb3f b7bb 5b3c 215b 7a3a
000000b0: ae94 383e 785b 273e b739 0d3d 5a47 903d
000000c0: 86d8 463e c295 8a3e 62cb a33d ad5b 633e
000000d0: ea11 da3d 3bdd 383e 73c3 ea3d 4f05 a53e
000000e0: db5a bc3e a4fc 653e d3a3 5d3e d593 493e
000000f0: 0000 0000 0000 0000 a39c 993e 8033 833d
00000100: 1153 463d 3ebc c83d 3baa 8a3d 21ed a13e
00000110: a73f 073e 7b7d 0b3e caee e23d 56a8 923e
00000120: 0000 0000 1703 c33d 85e0 d43d c1f5 193e
00000130: eab8 333d 5c68 153e 50cf 0d3e c4c4 973e
00000140: 0448 d03d 271f d23d e696 503f d017 e53d
00000150: bc98 093e c886 073e 5144 bb3d 168c 443e
00000160: 01fe c13d ef65 5f3e 3a9b 0f3e 4dd5 823d
00000170: abce 153e 758f 363e 3ef4 1e3d d6a0 113f
00000180: 8008 383e cae6 383e 3b01 243f 7fb1 2e3d
00000190: 60da 0e3d 9e6b 0840 e8cc e83c 36c7 203d
000001a0: 0000 0000 bf20 3e40 6386 2f3b 3230 453d
000001b0: d61e 043e 5fa8 dd3d 01be 6e3e e536 f13c
000001c0: a6f3 593e ae45 853b 0000 0000 2aef 113e
000001d0: 6610 ab3d d603 4c3e e222 433e eb75 d33d
000001e0: ce8f e43e fc03 9b3e 52c8 d43e d178 6d3e
000001f0: 7b6d 313e 7c9e b03d 3d30 053e ea11 b83e
00000200: a03d 673e 8a2f 4b3e 50a1 e23d eb66 b43c
00000210: f2c7 273e 0366 0e3e 98fd 5f3e 14aa 233e
00000220: fe0c fe3d 75e3 573e a83e 683d 73d6 533e
00000230: 2ee2 4a3e f24b 8d3e 98d6 c83e b1e2 c53d
00000240: 0000 0000 d378 c43d 5ef9 bf3b 12f9 4b3e
00000250: 0000 0000 71e4 bd3d 0000 0000 d712 cc3d
00000260: 8282 d83d ee38 ca3d 5c48 6e3d 7982 143e
00000270: 1226 bb3d f88a 6a3c 3b12 0b3e de8f 543d
00000280: 1187 883e 3aa4 c73c 73e0 033d 429e 643e
00000290: 494b a43e c612 783e e164 4e3e 1dd7 573e
000002a0: 3dfb 923d 3cf9 9f3d d63a 313e 2d84 143e
000002b0: 402e cb3d f4c1 6e3d 3def c63d 9a78 a53d
000002c0: 7fb8 0b3d 7e37 183e 0000 0000 cb7e f33d
000002d0: 363f fe3c 41cc 943d 6463 483e 9c96 2e3e
000002e0: 8cb9 ce3d e221 803e e3d8 b83e 1570 843e
000002f0: 0978 763e 34a2 8d3e 0c8b 503e 977f 173e
00000300: efc1 2c3e 6ea7 ba3d 9236 b73d 7396 103e
00000310: f96b f93d efb9 563e 99c9 173b 2344 243e
00000320: 0000 0000 fa47 5c3b 3f89 b33e 99e1 bf3b
00000330: 0000 0000 2f54 5a40 419f 023c 0000 0000
00000340: 0000 0000 5c15 5e3d b83c 013e 52ff 223e
00000350: 369e 9f3e a9a2 ed3e 0ff8 433f 7043 433e
00000360: 0000 0000 d026 0e3d c61c 9b3e a127 543e
00000370: 79ac 1f3e 0cdc e13d 0000 0000 d1e3 a33e
00000380: 0000 0000 c0ea 8040 0000 0000 0000 0000
00000390: 0000 0000 05bb 5d3e 2fec 293e dfa3 723e
000003a0: 0000 0000 0000 0000 b4c5 3b3d 7637 a83e
000003b0: ce4e 623d a3f6 e73d 4e51 463e 68c3 9b3c
000003c0: 1c8b 903e 68e0 4b3e aa0b d43d bb7b 183e
000003d0: 9250 ad3c 125c 0a3e 4099 c33c 2785 7c3e
000003e0: 9485 be3d 1c7f fd3d 1df8 103e 6966 413e
000003f0: 0000 0000 e62f b43d 5f80 923e c251 1e3e
0.13004039 0.11356841 0.61634 0.04862819 0.119171165 0.2552795 0.30287254 0.12342371
0.16612147 0.07129879 0.07469536 0.13181327 0.19915952 0.12329647 0.56851923 0.1068126
0.16342473 0.09431804 0.023082545 0.15787011 0.071695626 0.12584479 0.04861533 0.15182526
0.0 3.3385253 0.0532837 0.0861729 0.077667624 0.15295167 0.21087354 0.18185438
0.10480662 0.024280088 0.299435 0.18144283 0.23566206 0.09811259 0.06604827 0.14026678
0.0 1.5930191 0.013411454 0.00095503224 0.18025467 0.16343486 0.03447887 0.07044859
0.19418535 0.2706738 0.079977766 0.2220294 0.10647948 0.18053143 0.1146306 0.32230613
0.36788067 0.22459656 0.21644525 0.196853 0.0 0.0 0.30002317 0.06406307
0.048419062 0.09801529 0.0677075 0.31626227 0.13207875 0.13622086 0.11080702 0.28644055
0.0 0.09522074 0.10394386 0.15035154 0.04387752 0.14590591 0.13848615 0.29642308
0.10169986 0.10259848 0.8148025 0.111861825 0.1343717 0.13235009 0.0914389 0.19194064
0.094722755 0.21816228 0.14024058 0.0638834 0.14629619 0.17828162 0.038807146 0.5688604
0.17971992 0.18056789 0.6406438 0.042649742 0.034876227 2.1315684 0.02841802 0.039252482
0.0 2.9707487 0.0026782982 0.048141666 0.12902388 0.1082313 0.23314668 0.029445121
0.21284351 0.0040671444 0.0 0.1425139 0.08352737 0.19923338 0.19056275 0.103252254
0.44640964 0.30276477 0.41559082 0.23190619 0.1732692 0.086239785 0.13006683 0.35951167
0.22582102 0.19842353 0.11065924 0.022021731 0.16384867 0.13906102 0.21874082 0.15982848
0.12404822 0.21082862 0.05670038 0.20687275 0.19812843 0.27597004 0.39226222 0.096623786
0.0 0.09593358 0.0058585843 0.19919232 0.0 0.09272087 0.0 0.09964531
0.105717674 0.0987414 0.058174476 0.14502896 0.09138121 0.014315359 0.13581173 0.051895015
0.26665547 0.024370302 0.032196473 0.22325996 0.32088688 0.24225911 0.2015567 0.21078153
0.07176826 0.078112096 0.173076 0.14503546 0.09920931 0.058290437 0.097136 0.080796435
0.034111496 0.14864919 0.0 0.11889418 0.031036 0.07265521 0.19569165 0.1704964
0.10093984 0.2502585 0.3610297 0.25866762 0.24069227 0.27662814 0.20365542 0.14794765
0.16870855 0.09113966 0.08945955 0.14119892 0.12178797 0.20969366 0.0023160933 0.16041617
0.0 0.0033612237 0.35065648 0.0058557508 0.0 3.4113882 0.007972539 0.0
0.0 0.05421959 0.12620819 0.1591771 0.31175393 0.46413162 0.7655038 0.19068694
0.0 0.034704983 0.3029539 0.20718242 0.15593137 0.11028299 0.0 0.32009748
0.0 4.028656 0.0 0.0 0.0 0.21653374 0.16594003 0.23695324
0.0 0.0 0.04584284 0.32854813 0.055250935 0.11326339 0.19366953 0.019014075
0.28231132 0.19909823 0.10353787 0.1489095 0.021156583 0.13511685 0.023876786 0.24660169
0.09302822 0.1237776 0.14157148 0.18886723 0.0 0.087981984 0.28613564 0.15460876

prednet_full1.bias f4 [128]
00000000: f9db fac0 a73c 4dc0 874f 81c0 d716 04c1
00000010: 6fb2 6cc0 f5a8 70c0 c9f6 86bf cd0f 57c0
00000020: 761d 59c0 3c8e 5bc0 21a4 d8bf a1f6 7ec0
00000030: 602f 81c0 8312 54c0 6dba 5dc0 d8a8 6cc0
00000040: de05 65c0 c89d 5fc0 169d 70c0 f4ae 52c0
00000050: 8b0c 07c1 8b2b 73c0 b001 51c0 cd13 48c0
00000060: 6cb5 06c1 94db 9dbf b66e 97bf 6668 93c0
00000070: 4343 40c0 2b76 62c0 2991 51c0 684c 59c0
00000080: ea12 6ac0 15c0 75c0 e5c2 50c0 cb83 a4c0
00000090: 23ad 4ac0 e079 44c0 94c3 64c0 8d76 73c0
000000a0: 90ce 53c0 c282 77c0 5657 51c0 e2af 49c0
000000b0: 1730 4ec0 90d4 6fc0 ab75 3dc0 156f 7cc0
000000c0: 2aa9 7cc0 16d3 5bc0 c2a9 b5c0 9eec 81bf
000000d0: efcb 79c0 b621 f5c0 27e6 5fc0 9329 77c0
000000e0: dfcc adbf f401 37c0 438b 60c0 ad50 78c0
000000f0: 6ef7 75c0 e907 35c0 8f44 93c0 b645 63c0
00000100: 3547 6cc0 3956 57c0 647d 75c0 bced 3cc0
00000110: 37fb 37c0 4dab abbf e02c 60c0 5b56 50c0
00000120: e48b 31c0 ea7e 17c1 3a3e 6cc0 8b25 88c0
00000130: 5f9e 54c0 707e 60c0 3e63 56c0 6a2e 5bc0
00000140: 04c8 7fc0 0b37 67c0 079c 66c0 03a3 60c0
00000150: e1ec 66c0 733f 84c0 2c96 88c0 2aa4 5ec0
00000160: 8321 48c0 ec66 5ac0 07c4 59c0 a43f 4bc0
00000170: 8095 4bc0 d684 7ac0 b52d 04c1 9b7a 79c0
00000180: 2230 5cc0 52d9 77c0 a917 65c0 274b b5c0
00000190: faaa 72c0 e110 0ec1 9235 4dc0 c40b 74c0
000001a0: 4c5d 18c1 c38f 7ac0 c711 4dc0 7f6e 76c0
000001b0: 986b 6fc0 7d7b 83c0 9de4 84c0 5474 81c0
000001c0: bdee 50c0 d807 1cc1 b337 7fc0 b0a8 74c0
000001d0: 5f29 63c0 a0f4 67c0 3f43 66c0 4423 cac0
000001e0: 6bb3 5cc0 9f76 54c0 e602 98c0 0d9a eec0
000001f0: 06a3 5fc0 1f16 5ec0 0bb6 61c0 3c50 71c0
-7.839352 -3.206827 -4.040958 -8.255576 -3.6983907 -3.7603123 -1.0544063 -3.3603394
-3.3924232 -3.4305563 -1.6925088 -3.983803 -4.037033 -3.3136299 -3.4645035 -3.6978054
-3.578483 -3.4940052 -3.7595878 -3.2919283 -8.440562 -3.7995327 -3.265728 -3.1262085
-8.419292 -1.2332635 -1.1830661 -4.606494 -3.0041053 -3.5384624 -3.2744849 -3.3952885
-3.6574044 -3.8398488 -3.2618954 -5.141088 -3.1668174 -3.0699387 -3.5744371 -3.8041108
-3.3094826 -3.8673558 -3.2709556 -3.15136 -3.2216852 -3.7473488 -2.960307 -3.94428
-3.947825 -3.4347587 -5.6769724 -1.0150335 -3.903072 -7.660365 -3.4984224 -3.8619125
-1.3578147 -2.8594942 -3.5084999 -3.879924 -3.843227 -2.8286078 -4.602119 -3.5511298
-3.6918461 -3.3646376 -3.8357782 -2.9520102 -2.874708 -1.3411652 -3.502739 -3.2552707
-2.7741632 -9.468485 -3.691298 -4.254583 -3.3221662 -3.5077171 -3.3498073 -3.424708
-3.996583 -3.6127346 -3.6032732 -3.5099494 -3.608208 -4.1327453 -4.2683315 -3.4787698
-3.1270454 -3.4125319 -3.4025896 -3.1757593 -3.1809998 -3.9143577 -8.261159 -3.8981082
-3.4404378 -3.8726392 -3.579569 -5.665424 -3.7916856 -8.879121 -3.2063947 -3.813218
-9.522778 -3.9150245 -3.20421 -3.8504941 -3.740942 -4.1088243 -4.152907 -4.04545
-3.2645714 -9.751915 -3.9877746 -3.8227959 -3.5494 -3.6243057 -3.5978544 -6.316805
-3.4484508 -3.31974 -4.750354 -7.456305 -3.4943252 -3.4701002 -3.526736 -3.770522

prednet_full2.weight f4 [64, 128]
00000000: e156 193f 9a75 ef3f 2ddc 3040 74b2 203f
00000010: c369 a23f 2fd9 d13f 5416 7c3c 8c9c eb3f
00000020: 8800 f53e d80d 6740 81a1 dd3e 91e0 103f
00000030: 3647 ec3f 6ab1 1b3f 87db 973f d091 0040
00000040: f917 623f 7d84 ce3f 61e0 103f e751 0040
00000050: 33b1 ee3e 6969 c73f 3773 0240 7f43 8c3f
00000060: de58 fd3e a9c1 be3d 97bd 2c3e 01c3 1340
00000070: 61a6 553f cf95 423f 80e3 ae3f 36e5 df3f
00000080: efb8 133f 6166 ad3f 5545 383f b989 ab3f
00000090: 9f48 f23f 28bf 123f 80d7 c13f 1fc4 2b3f
000000a0: 8cab f43f 3d83 3f3f 1663 563f 02fb c03e
000000b0: 70c4 b13f 7d21 a83f c0ba 883f 5e43 c83f
000000c0: 7184 373f a513 ea3f 5b32 df3f 8a97 f83e
000000d0: cc9c ee3f c355 523f 5810 0540 4523 1c40
000000e0: 0371 6f3e 4e38 893f a200 333f 0663 ac3f
000000f0: f5c3 2a40 b360 a33f 7ab7 db3f 21bc 0040
00000100: f093 0540 5b7e fe3f eb94 3640 73df b73f
00000110: 5384 913f b0f0 763d a48a ef3f 103c 283f
00000120: fcba ad3f d5a2 ad3e 0f39 b53f a1aa 0740
00000130: 9689 6f3f ec1b a13f 8caf 2940 ac38 d83f
00000140: aae4 d43f 9ce2 3440 2095 733f dedd 0940
00000150: 7009 ba3f 2392 f53f cb9d e03f 40ff 303f
00000160: 7a29 7a3f bb5e 143f 0212 a33f e4da a23f
00000170: f5c4 0840 a645 7640 d639 213f c42a 1040
00000180: 4497 b13f 0fd0 213f d29e e23f ed4a a53f
00000190: 6125 ea3f 8c34 b83e b62e bb3f 6139 ab3f
000001a0: 3158 de3e 285b ec3f 350a f03f 579d 0440
000001b0: 8104 ac3f 1c23 cb3f d41f 203f 198f 1d40
000001c0: 56e9 1d40 77c8 013f f764 c03f 592b 3a40
000001d0: 0b7c 9c3f ddb6 a23f 0f5a ea3f 5099 b73f
000001e0: c95c f13f 2d9a fd3f f495 d03f 9e7b 843f
000001f0: 18d6 d83f aa98 f33f ade7 a53e 3ab5 803f
00000200: f41c 083f 4190 d23e 968a 0f40 2048 a43e
00000210: df18 c03d d6e7 973e 9f36 f03d 2db5 b93e
00000220: 6d4a 203e 8f58 093f 0000 0000 4274 813e
00000230: 17ec 903f c708 723f 220c b83e f5ce 3b3f
00000240: 0a89 f83e e9d3 643e ca64 173e aa1c eb3e
00000250: af0a bb3e 0010 ee3f 63fe 263c f623 8c3f
00000260: 0aa9 183f 90a8 363d 0000 0000 5855 da3f
00000270: fa01 993c 9ac4 9a3f a397 a93b 08c4 893f
00000280: ae15 4d3f 5ff7 ae3f 2d80 a53e cf0e 9a3f
00000290: 026c 643f 2b94 4e3f a676 3c3f c81a 053f
000002a0: eab0 7f3f eb78 3c3f d8cd 473d 4e90 433f
000002b0: 919b 1b3f 55f0 1e3e 9061 4c3f 9714 e93f
000002c0: 7bb1 323f 92ef 3c3d 055c 983f 200e f23e
000002d0: 52d5 803e ad78 0b3f f0d3 be3f 3766 f13e
000002e0: e59b 703d 78a3 543e c522 533f 706f 7a3f
000002f0: 4446 873f fe4e 803b 7056 9a3f 889d 973f
00000300: a4d4 383e 0000 0000 2857 af3f 3a9c 953e
00000310: 807b 4f3f fa2c 9f3b 9a68 4c3f f8df 9d3e
00000320: 1a38 893e 82e3 aa3e eceb 243f ae3d 693f
00000330: 66af 173e b04d b43e a060 333f 93e2 983e
00000340: 3a13 693f 29aa 5b3f a3ba 693f 7d45 043f
00000350: 75f3 a43f 93d9 1e3f b4ec e23e c94f 0b3f
00000360: dc28 5d3d 5b85 9c3e ef96 ad3e 00f7 c33e
00000370: ff33 ff3a 409b fd3d 457a b83e a52e f83f
00000380: 14bb 813f e6ef 873d dec8 3d3f d11c 1d3f
00000390: f76b 873f 47f4 b33e cc5c a63e 9929 3c3d
000003a0: 1122 743e 4160 903f 64ae d63e c0bf 473f
000003b0: 0000 0000 9a76 d73e 41fc f53d ed56 e53e
000003c0: e329 c13d d2a4 743e 38c9 113f 374e 5f3f
000003d0: 254d f93e 90c7 053f f5aa 013f d5f1 563f
000003e0: 0c11 b13f bfc5 e73e 7b78 f33e 8f3b 1b3f
000003f0: 5bfc 143d 163a 573f f4bb 363e 6454 1f3d
0.5989819 1.8707764 2.7634385 0.627723 1.2688526 1.6394404 0.015386183 1.8407149
0.47851968 3.61022 0.4328728 0.5659266 1.8459232 0.6081759 1.186387 2.0088997
0.8831783 1.6134182 0.56592375 2.004999 0.46619567 1.5579044 2.0382822 1.0958098
0.49481863 0.093142815 0.16869198 2.308777 0.83457 0.7600984 1.3663177 1.7491825
0.5770406 1.3546869 0.7198079 1.3401405 1.8928412 0.5732293 1.514389 0.6709613
1.9114852 0.7480963 0.83744943 0.37691504 1.3888073 1.313522 1.0681992 1.5645559
0.71686465 1.8287245 1.7437242 0.48553115 1.8641601 0.8216211 2.0791225 2.4396527
0.23382954 1.0720308 0.6992284 1.346772 2.6682103 1.2763885 1.7165368 2.0114825
2.0871544 1.9882311 2.8528392 1.4365066 1.1368507 0.06028813 1.8714185 0.6571665
1.3572688 0.33913293 1.4158038 2.1197894 0.93569314 1.2586646 2.6513395 1.6892295
1.6632283 2.8263311 0.9514942 2.1541667 1.453413 1.9185222 1.7548155 0.6913948
0.9771954 0.5795705 1.273987 1.272305 2.1370213 3.848001 0.62978876 2.2526102
1.3874288 0.632081 1.7704718 1.291349 1.8292657 0.3597759 1.462363 1.3376886
0.4342666 1.8465319 1.8753115 2.0721033 1.3438874 1.587009 0.62548566 2.461859
2.4673667 0.5069651 1.5030812 2.9088957 1.2225355 1.2712055 1.8308734 1.4343662
1.8856441 1.9812676 1.6295762 1.0350225 1.6940336 1.9030964 0.32403317 1.0055306
0.5316918 0.41125682 2.2428336 0.32086277 0.09379744 0.29669064 0.11729168 0.3627104
0.15653391 0.53650755 0.0 0.2528401 1.1322049 0.94544643 0.35946757 0.73362666
0.48542053 0.22346462 0.14784542 0.45920306 0.36531588 1.8598633 0.010192486 1.0948474
0.59632933 0.044594347 0.0 1.7057295 0.0186777 1.2091248 0.005175547 1.0762949
0.80111206 1.3669242 0.32324353 1.2035769 0.89227307 0.80694836 0.73618543 0.5199399
0.99879324 0.73622006 0.048780292 0.76392066 0.6078425 0.15521367 0.7983637 1.8209409
0.69802064 0.04612691 1.1903082 0.47276402 0.2516275 0.5448101 1.4908428 0.47148296
0.058742423 0.20765483 0.8247493 0.9782629 1.0568318 0.0039156666 1.2057629 1.184495
0.18049866 0.0 1.3698473 0.29220754 0.8104782 0.0048576565 0.7984711 0.30834937
0.26800615 0.333767 0.6442249 0.9110974 0.14813003 0.3521552 0.70069313 0.29860362
0.9104496 0.8580652 0.9130041 0.5166853 1.2886797 0.6205074 0.44321215 0.5441862
0.053994045 0.30570492 0.33904216 0.38274384 0.0019470452 0.12383127 0.36030784 1.9389235
1.0135217 0.06637554 0.74134624 0.61372095 1.0579823 0.35147306 0.32492673 0.045938108
0.2384112 1.1279374 0.41929924 0.7802696 0.0 0.42082673 0.12011004 0.44792882
0.094318174 0.23890999 0.5694766 0.8722872 0.4869167 0.52257633 0.50651485 0.83962756
1.3833327 0.45268056 0.47552857 0.60637754 0.036373477 0.8407301 0.17845136 0.03889884

prednet_full2.bias f4 [64]
00000000: 3df5 88c0 99df 91c0 d669 17c1 345c 94c0
00000010: 6b43 95c0 717f 87c0 9bd7 9cc0 433a 8ec0
00000020: 2662 90c0 fdff 79c0 6aef 93c0 7498 95c0
00000030: b95c f5c0 11fa 0dc1 4c71 88c0 c674 48c1
00000040: c542 7dc0 40c8 79c0 0565 6ec0 e8e3 a7c0
00000050: 27b3 8fc0 c1b4 8ac0 9836 9ac0 f476 8bc0
00000060: 34a3 74c0 af45 8dc0 0520 52c1 a9ad 7dc0
00000070: 7969 8ac0 5e34 8cc0 927f 34c1 525d 03c1
00000080: abac 95c0 8f22 91c0 7893 8bc0 d797 a6c0
00000090: 4daa 84c0 3a49 c6c0 9f51 a6c0 109e 8bc0
000000a0: 7de3 bec0 9599 9ac0 cc9f 7bc0 7a2e 88c0
000000b0: b5d5 87c0 152f 8fc0 9a08 93c0 16ba 0dc1
000000c0: 043e 8cc0 55b8 86c0 f99a 94c0 dbb0 4bc1
000000d0: b55b d6c0 33ce 8cc0 9f9b 8ec0 9286 8dc0
000000e0: f2fa 17c1 83cb 82c0 18f0 82c0 50d9 81c0
000000f0: 62ec 89c0 9a8e 7bc0 ff1e 8cc0 d0e6 90c0
-4.2799363 -4.5585446 -9.463339 -4.6362553 -4.6644797 -4.234307 -4.901319 -4.444612
-4.511981 -3.9062493 -4.6229753 -4.67486 -7.6675687 -8.873551 -4.26383 -12.528509
-3.9572003 -3.9028473 -3.7249157 -5.2465706 -4.490619 -4.3345647 -4.8191643 -4.3582706
-3.8224611 -4.4147563 -13.132817 -3.9637244 -4.325375 -4.3813925 -11.281145 -8.210283
-4.6773276 -4.5354686 -4.3617516 -5.206035 -4.1457887 -6.196439 -5.1974635 -4.3630447
-5.9652696 -4.831248 -3.9316282 -4.2556734 -4.2448373 -4.4744973 -4.5948 -8.857931
-4.3825703 -4.2100015 -4.6439176 -12.730678 -6.6986947 -4.400171 -4.4564967 -4.422677
-9.498766 -4.0873427 -4.0918083 -4.0577774 -4.3101053 -3.9305787 -4.3787837 -4.5281754

prednet_full3.weight f4 [1, 64]
00000000: e805 a73d d430 b33c 4e4c e93d ee42 753d
00000010: 5023 1e3d edf2 2e3d 204b 3e3d adb6 913d
00000020: c03e a63d d199 883d b8d7 8d3c 3247 063d
00000030: e666 d93d 91db eb3d fde6 b93d 747c 333e
00000040: 6a0f 5c3d 074c 6b3d 8ec9 ba3d 70db 2f3d
00000050: bed7 5a3d 48bf 4e3c 1555 663d 585c ba3c
00000060: 03cd 4f3d e983 343d 6c9a b13e 9ce3 323d
00000070: 0263 cd3d d068 c43c 32fa 933e d877 f93d
00000080: 744a 973d 92e2 713d 02ab a63a 0156 943d
00000090: 02dc b73c f8e4 cb3d 405f 183d 423d a43c
000000a0: 8074 b93d b30c 823d 4ec8 633d a749 723d
000000b0: 8406 cd3c 4935 8f3d 5640 6c3d fba6 6a3d
000000c0: 8ba6 123d d7cf 163d b0a1 013d 465c 953e
000000d0: ee2c bb3d 4a8d 553d 841e 9d3d 949c ab3c
000000e0: c164 a53d 4934 633d 48fc eb3b 5191 263d
000000f0: 3838 4c3d 55ad d63c ecb9 9f3d f28b 933c
0.081554234 0.021873869 0.11391507 0.059878282 0.038607895 0.04271214 0.046458364 0.07114921
0.08117437 0.06669963 0.017314777 0.03278274 0.106153294 0.11516488 0.09077261 0.17527944
0.053725637 0.057445552 0.09120475 0.04293388 0.053428404 0.012618847 0.056233484 0.022749111
0.050732624 0.04407111 0.34688127 0.043674096 0.1002865 0.02397576 0.2890182 0.121810615
0.07387248 0.059053965 0.0012715759 0.072429664 0.022443775 0.09955782 0.037200212 0.020048741
0.09055424 0.063500784 0.055610947 0.05915227 0.025027521 0.06992585 0.057678543 0.05728815
0.03580336 0.036819305 0.031648338 0.29171962 0.09139429 0.052136697 0.07671836 0.020948686
0.08075858 0.055469785 0.007201705 0.04066593 0.049858302 0.026205698 0.07799134 0.018011067
